TLCS/models/model_59/trained_actor_model.pt (torch, 40695 bytes, 6 tensors)

0.weight f4 [64, 80]
000000 2c 1d 19 3d d8 f3 7b bc 6a 1a 1f 3c 86 fb ad 3d
       0.037381336 -0.015377961 0.009710887 0.0849524
000010 41 10 0e 3d 0d 9b ed 3d ef 4c c4 3d f0 d3 9b 3c
       0.03468347 0.11601839 0.095849864 0.019021958
000020 e3 cc f3 bd 7d e8 14 bd 0c 69 26 be 84 f5 1d bb
       -0.119043134 -0.03635453 -0.1625101 -0.0024102638
000030 9d 4e 01 be ba 50 4c 3b cd f1 59 3d 90 e9 3b 3d
       -0.12627645 0.0031176046 0.053209115 0.04587704
000040 ff 77 7d 3d b9 d3 f0 3d 4b 7f ca bc fc 44 ff bc
       0.061882015 0.11759133 -0.024718901 -0.031160824
000050 d6 bf e2 3c 0e 9b f6 3d 31 f3 07 be 61 56 a5 3c
       0.027679365 0.12041293 -0.13276364 0.02018279
000060 a3 34 70 3d f5 4a 5c 3d ff 3f a4 3d d3 31 6b bd
       0.05864395 0.053782422 0.08020019 -0.057420563
000070 ab 1b 89 bd 20 1c b9 3d 06 df c9 bd ae 24 32 3d
       -0.0669473 0.090385675 -0.098569915 0.04349201
000080 9d 67 ee 3c 17 fb 10 be c3 8e 5d 3d 87 18 82 3d
       0.029102141 -0.14158283 0.054091226 0.063523345
000090 92 b0 7c 3d 56 18 18 bb 54 c7 cf 3c e1 b7 c1 bb
       0.061691828 -0.0023207865 0.025363602 -0.0059118127
0000a0 12 dd 65 bd b9 cd 0f 3d 3a 66 82 bd 80 9f b1 bd
       -0.056119032 0.0351083 -0.063671544 -0.08673
0000b0 1a 74 cf 3d de 7e 91 bd a0 29 43 bd 7d 2c da bc
       0.101295665 -0.07104276 -0.04764712 -0.026632542
0000c0 f2 d4 86 bc 28 4e 5e 3d 08 44 95 bd 73 58 e3 3c
       -0.016458962 0.054273754 -0.072883666 0.027752137
0000d0 40 88 4b bd b6 d5 d5 bc 45 6b 8b bc 6d 75 55 bd
       -0.049690485 -0.026102882 -0.017018924 -0.05211394
0000e0 60 76 d6 3d 35 2f b7 bd 65 ab 09 3d ea 4c 36 bc
       0.10471797 -0.08944551 0.03361072 -0.011126736
0000f0 e8 35 9d bd 34 94 cb 3c f9 85 66 3d 72 82 2d bd
       -0.076762974 0.024850942 0.05628011 -0.04236073
000100 ee 17 dd bd 79 ad 09 bc f7 33 b6 bb 19 b8 d1 3d
       -0.1079558 -0.0084031755 -0.005560394 0.10240192
000110 74 59 b1 3d 76 53 a4 3d 53 4c 75 3c 14 34 5b bd
       0.0865964 0.080237314 0.01497181 -0.053516462
000120 66 4e a7 bd 89 ec c1 3c d9 f6 31 be f8 b7 e8 bd
       -0.0816925 0.023672359 -0.17379321 -0.11363214
000130 33 79 ff 3c 4a 70 cf 3c 76 2f a1 bc b3 6e 5c 3d
       0.031185722 0.025322098 -0.019675951 0.05381651
000140 64 34 c9 3c 5f 24 b8 3c 97 ba 10 be 1b 1c 1c bb
       0.024561115 0.02247828 -0.14133678 -0.0023820463
000150 c9 e0 c3 bd a8 e6 1b bd 9d d8 b9 bc 75 c1 39 be
       -0.09564359 -0.038061768 -0.022686297 -0.18140204
000160 26 91 cc 3d 4b 3c 23 bd b7 51 9e bd 65 fb 3b bd
       0.09988622 -0.03985242 -0.077304296 -0.045894045
000170 ec 18 9b bc 92 36 45 3d 85 cc 45 bd 9c 66 5a bd
       -0.018932782 0.048147745 -0.04829075 -0.053320512
000180 18 40 d2 bc 8c 9b a3 3d 1c 03 1b bd c0 1e 38 3d
       -0.025665328 0.079886526 -0.037844762 0.0449512
000190 f8 33 3a bd 05 63 ae 3d 8c cb c2 bc 20 02 c2 bd
       -0.045459718 0.0851498 -0.0237787 -0.094730616
0001a0 ce a8 18 bc c1 ab ec bd 66 43 69 bd 79 d3 e6 3c
       -0.00931759 -0.11556197 -0.05694904 0.02817701
0001b0 66 38 b7 3d 4e cd 7b bd ec a5 ca 3d 8c 0d 00 3e
       0.08946304 -0.06147509 0.09894928 0.12505168
0001c0 49 6e 95 3d 89 5a 1a bd 8a e7 fa bd 0f 35 22 bd
       0.07296426 -0.037683997 -0.12251194 -0.039601382
0001d0 bb 73 8b 3d 1e 57 8b bd d2 ad 94 3c d7 a6 c8 bd
       0.06809183 -0.06803726 0.01814929 -0.09797447
0001e0 b6 92 5e bd 58 bb 9d 3d 91 69 d2 bd 0d ee 9b 3d
       -0.054339133 0.077017486 -0.102740414 0.07613764
0001f0 0d a8 ca 3d 81 e9 9a bd 34 1e 78 3c f1 fa 8a bc
       0.098953344 -0.075640686 0.01514392 -0.016965361
000200 05 0a 30 3d b8 1e b9 3d f8 8f 10 be 49 d7 6b 3d
       0.042978305 0.09039062 -0.1411742 0.05757836
000210 ff be 16 be 96 02 e7 3d 81 9f 12 be 11 50 e1 bd
       -0.14721297 0.1127979 -0.14318658 -0.110015996
000220 1d d2 c6 bd 50 ff ee bb 1e 87 28 3e e8 76 b9 bd
       -0.09708045 -0.007293619 0.16457793 -0.09055883
000230 14 76 04 be 74 13 d0 bd b6 41 b4 3c 64 51 30 bb
       -0.12935668 -0.101599604 0.02200399 -0.0026903981
000240 f9 fa 29 bd 27 94 02 3d 92 05 86 3d ad 4a 17 bd
       -0.04149911 0.03187957 0.06544031 -0.03693645
000250 c8 af 67 ba 4c d4 8e 3d a2 6e ef 3c 8d 10 ba 3d
       -0.0008838144 0.06974086 0.029227559 0.09085188
000260 5a 58 27 be 19 aa 37 3e 97 d4 b3 3c f6 96 6f bc
       -0.16342297 0.17935981 0.021951957 -0.014623394
000270 f7 f5 e9 3d 50 89 01 3c 40 26 21 3e dd ea 1e bd
       0.11423867 0.007906273 0.15737247 -0.0387982
000280 aa 9a ec 3a ea f3 a9 3d 92 c5 49 3d a1 d2 d1 bd
       0.0018051465 0.08298476 0.049260683 -0.102452524
000290 30 77 2d 3d 9c b6 ff 3a 3f 7c 80 3d 53 3a 82 bc
       0.042349994 0.0019509378 0.06273698 -0.015896952
0002a0 5c 44 89 bd 58 61 48 bd ff c5 f0 3d eb 53 e9 bd
       -0.06702492 -0.04892096 0.11756515 -0.11392959
0002b0 b0 5c 68 3c af 4c 1c 3e 0a a5 24 be 64 89 06 3e
       0.014182255 0.15263627 -0.16078582 0.13138348
0002c0 ce 4b cd bb 36 1f b7 3c 65 45 38 bd 97 8e 97 3d
       -0.00626514 0.02235375 -0.044988055 0.07400244
0002d0 6e e7 e7 bd c4 ee cc 3d f6 7a 0a be c8 1e fc bd
       -0.113234386 0.100064784 -0.13523468 -0.123105586
0002e0 0c 41 ab 3d cf 26 95 bd 8b 53 16 be 05 e0 2d bd
       0.08362016 -0.07282793 -0.14680307 -0.04244997
0002f0 5a e3 54 3a 4c 52 6a bd 5c 54 32 3b 2b ef 2d bd
       0.0008121036 -0.05720739 0.0027210927 -0.042464416
000300 35 76 0e bd 0c 48 58 bd 01 cc a1 3d 3f 3a 9a 3d
       -0.0347807 -0.052803084 0.07900239 0.07530641
000310 87 92 0c 3d 8a c1 35 bd 40 6e 2e 3c 28 33 ab bd
       0.034319427 -0.044374026 0.010646403 -0.08359367
000320 41 3f 95 3c 7b 36 19 3e 33 95 b9 3d b5 22 d4 bd
       0.018218638 0.14962189 0.090616606 -0.10358182
000330 f8 47 9a bd 72 6d b5 bd ac ba b9 bd 70 21 c1 3c
       -0.07533258 -0.08858766 -0.09068808 0.023575515
000340 b2 25 fc bc 99 d6 88 3c 87 94 b1 3c f8 71 ba bc
       -0.030779693 0.01670389 0.021677269 -0.022759423
000350 9e 7e 79 3c 23 0d 1b 3e 82 cf 92 bd 78 38 5e 3d
       0.015227942 0.1514173 -0.07168485 0.05425307
000360 12 21 c4 3d 9f 65 5e 3c 31 a5 f6 3d db 6a a8 bd
       0.0957662 0.013574033 0.120432265 -0.08223506
000370 1b 58 36 3d 0e d6 12 bd 86 6d c1 bd 71 ee 99 bc
       0.044517618 -0.03584867 -0.09444718 -0.018790456
000380 5e da aa 3d 86 f9 c5 bd 30 33 03 bd ee ee ee 3a
       0.083424315 -0.096667334 -0.032031238 0.0018229166
000390 d1 60 fe 3d bd 82 a8 3d 1f 42 fe bd 43 37 02 bd
       0.1242081 0.08228061 -0.12414955 -0.031790983
0003a0 c9 53 02 3b 56 d9 2e 3e 46 f4 52 bb cb c7 0d be
       0.0019886366 0.17075095 -0.0032189055 -0.13845746
0003b0 a0 a9 4a bd 68 cb 1d be 87 d2 36 3d 13 10 08 3e
       -0.049478173 -0.15409625 0.04463437 0.13287382
0003c0 7d a0 99 3d 11 59 a4 bd bb c9 ee bc c1 00 a5 3c
       0.07501314 -0.080248006 -0.029148927 0.020141961
0003d0 11 6e c2 3d 7c 3c fc 3d 49 ef b6 bd fd 36 d7 bd
       0.0949365 0.12316224 -0.08932359 -0.10508535
0003e0 0f 86 84 3d a8 5b c9 bd 8d f8 b7 bd e2 aa 9f 3d
       0.06470882 -0.09831935 -0.08982954 0.07796265
0003f0 f0 c4 83 be 2d 4d 1a 3c f8 45 ac bc c2 23 5d 3d
       -0.2573619 0.009417814 -0.021029457 0.05398918

0.bias f4 [64]
000000 e8 b2 6f bc 42 4e f9 bd c0 9f 8e bd 95 c5 72 bd
       -0.014630057 -0.121731296 -0.06964064 -0.05927046
000010 a8 b0 12 be 0e bd a0 3d d0 8f 04 3e 84 53 81 b9
       -0.14325202 0.07848559 0.12945485 -0.0002466702
000020 5c c9 c1 bd 1b fb 11 bd 54 2b 6a 3c 43 72 c8 bd
       -0.094622344 -0.035639863 0.014292557 -0.09787419
000030 ce 03 b3 bd 45 34 1a bd d2 ee e9 3d ac fc e5 bd
       -0.0874096 -0.037647504 0.114225045 -0.11229834
000040 54 5b 6d bc a2 0d 8b bd d7 c3 60 bd aa 74 98 bd
       -0.014487106 -0.0678971 -0.054874267 -0.07444127
000050 aa ad 05 3e 02 7f 0c bd 50 3f 1b be 1e 2f ba 3d
       0.13054529 -0.03430081 -0.1516087 0.09091018
000060 1b 33 31 bd 68 dd e6 bc 9f 48 94 3d 55 13 d5 3d
       -0.04326163 -0.028181747 0.07240414 0.10404078
000070 94 53 e5 bd 0d a5 46 3c 4a b9 bf bc 37 c4 d4 bd
       -0.11197582 0.012124312 -0.023403782 -0.103889875
000080 8f 05 9e 3d 52 b4 fb bd 4c d4 c7 3c 39 8d 7c bd
       0.07715904 -0.12290253 0.024393223 -0.061658118
000090 e5 9a b7 3c e7 95 4b 3d 28 e7 e9 3d c7 46 e1 bc
       0.022412727 0.049703505 0.11421043 -0.02749957
0000a0 e9 f9 23 3d 9b 5c ff 3c f1 41 15 3e f8 57 f9 bb
       0.040033255 0.031172087 0.14575936 -0.0076093636
0000b0 56 9e ea 3c 64 22 9b bd ab 6c c5 3d 0f c6 8d 3d
       0.028639954 -0.07574919 0.096398674 0.06922542
0000c0 cf b9 41 3c 63 0f 3a 3d 9b bf ac 3c 1c 3f a2 bd
       0.011824085 0.04542483 0.021087458 -0.079221934
0000d0 31 3a 38 bc f9 58 2a bd 42 5e 64 3d 51 53 85 bc
       -0.011244343 -0.041588757 0.055753954 -0.01627508
0000e0 47 49 d6 3d fa 29 21 bd ea e8 01 3e d3 a4 19 3d
       0.10463195 -0.039346673 0.12686506 0.037510704
0000f0 fa 49 be bc 6b 32 98 bd 8a 2d 91 3b 25 86 00 bd
       -0.023228634 -0.074314915 0.0044304775 -0.03137793

2.weight f4 [64, 64]
000000 b2 58 a5 3d d3 db 59 3c d8 d8 e9 3d 9d 38 39 bc
       0.08073558 0.013297039 0.11418313 -0.011305002
000010 28 2b 43 bd 14 bc cf 3d f5 38 f0 3d cf 7b 02 3e
       -0.04764858 0.10143295 0.11729614 0.12742542
000020 ed 7e f5 3d 84 21 97 3c db a4 40 3d 9a f9 9c 3c
       0.119871 0.018448599 0.04703222 0.019161988
000030 56 6f 27 3e 3f 5a 0b 3e 88 93 3e bd 49 4e 36 bd
       0.16351065 0.13608645 -0.046527416 -0.044508252
000040 5a 6d e8 3d c8 a0 03 3e ff f0 a8 3c 37 d3 d3 3d
       0.11348982 0.12854302 0.020622728 0.103430204
000050 98 ac 2c be 84 e3 f2 3d 5e 80 21 bd db 85 6c 3d
       -0.16862714 0.118598014 -0.03942906 0.057744842
000060 df 96 a6 3c 00 4e 97 bd 50 dc cb bd f5 11 2a bc
       0.020335613 -0.07387924 -0.09954131 -0.010380258
000070 c9 64 ae 3d f0 03 1f bd 00 e2 70 bd df 2c d6 3d
       0.08515317 -0.038822114 -0.05880928 0.10457777
000080 32 21 ba bd d8 5f bc 3d 2a 20 74 be 87 fb 16 be
       -0.09088363 0.09197968 -0.23840395 -0.14744388
000090 2d c1 48 be d5 69 91 bd 38 e5 1d be 0a d3 34 3d
       -0.1960494 -0.07100264 -0.15419471 0.044146575
0000a0 62 3b f6 3d a0 df bc ba 69 2d 3f 3d 14 80 05 3e
       0.12023045 -0.0014409907 0.046674166 0.13037139
0000b0 8a d5 02 3e 02 e4 c3 3d 38 9c 46 3d b7 01 a5 3d
       0.12776771 0.095649734 0.048488826 0.08056968
0000c0 c6 7e 36 3c 08 a0 47 bd 23 d0 a2 bc 7a a5 0b bd
       0.011138624 -0.048736602 -0.019874638 -0.034093358
0000d0 38 ec 81 3c 76 3b 85 3d c7 51 2a be ab 0c ce 3b
       0.015859708 0.06505482 -0.16632758 0.0062881312
0000e0 72 d8 13 bc dd c5 37 bd 87 cd a8 bc 2b 7b 82 bb
       -0.009023773 -0.04486643 -0.020605816 -0.003981968
0000f0 02 c1 22 be 8c 45 b4 bc 97 49 ca 3c 8a 8f 2b 3e
       -0.15893939 -0.022005819 0.024693293 0.16753975
000100 d3 42 8b ba 31 ae fd 3d 22 c2 8d 3d 57 9c 2e 3e
       -0.0010624774 0.1238674 0.069217935 0.17051826
000110 38 96 4f bd fb 90 27 be 2b 3b 2b 3e 10 ec 78 bc
       -0.05068037 -0.163639 0.1672179 -0.015193
000120 80 b4 c4 3d 29 83 9a 3d 30 0c 15 bd 3c 00 ee bd
       0.0960474 0.07544548 -0.036388576 -0.116211385
000130 ce 94 6b bd 74 32 2f bd 38 07 29 3d 5e 3d 24 3d
       -0.057514958 -0.042772725 0.04126665 0.040097587
000140 5f 8a e9 bd de f0 96 bd cf 29 47 3c 92 d4 0f bd
       -0.11403345 -0.073701605 0.012155964 -0.035114832
000150 e4 c0 9a 3d af 5c 49 bd f4 09 c7 bd 74 80 0b 3e
       0.07556322 -0.049160656 -0.09718695 0.1362322
000160 c5 4a 13 3e c6 50 ca 3c 30 7f 18 3e ec 64 eb 3c
       0.14383991 0.024696719 0.14892268 0.028734647
000170 5a ef 44 3e ca 8a 6e 3d f7 b8 26 be 4c 49 07 be
       0.1923193 0.05823783 -0.16281496 -0.13211554
000180 e9 10 83 3d be b7 05 3e 7f 7c 26 bd a7 48 b9 bd
       0.0639971 0.13058373 -0.040646072 -0.090470605
000190 50 0b 08 3d 70 77 a6 bc d8 a3 85 3d a9 00 cc bd
       0.033213913 -0.020320624 0.06525391 -0.099610634
0001a0 73 87 db 3d 06 5b e0 bb 78 f9 d4 bb 46 45 c9 3d
       0.10719194 -0.0068467883 -0.0064994656 0.09827666
0001b0 06 4d 96 bd aa 06 39 bd f6 c2 d8 bc 32 18 62 3d
       -0.0733891 -0.04517237 -0.026460152 0.055198856
0001c0 94 58 3e 3c 04 87 94 3d 4f eb 43 3c 41 06 e1 3d
       0.011617798 0.07252315 0.011957957 0.10987521
0001d0 a4 15 eb b8 0b c1 e6 3d 2e 97 17 3c 44 07 8f 3d
       -0.00011209704 0.11267289 0.009252353 0.06983808
0001e0 20 8b 34 3d 46 30 e1 bd b1 54 0c bd 9b ef 51 3d
       0.044077992 -0.109955356 -0.034260456 0.051253896
0001f0 4e 6f 99 3c 18 b9 a9 3d 0d 36 54 3d e8 ff 86 bc
       0.018729832 0.08287257 0.05180936 -0.016479447
000200 d2 d1 fa bd 3f cf 8f 3d af 0e 4c 3e c0 d4 c8 bd
       -0.12247051 0.07021951 0.19927476 -0.09806204
000210 8c 99 06 3e 51 5a 0a 3e fe 2f 3f be f7 47 90 3d
       0.13144511 0.13511015 -0.18670651 0.07044976
000220 21 51 80 3d 8f e1 eb 3d e5 61 af 3d 09 fe c4 3d
       0.06265474 0.11517631 0.08563594 0.09618766
000230 cd 62 4a 3d c2 40 03 3e 51 c7 0c 3c 7e 85 cc 3d
       0.04941063 0.12817672 0.008592443 0.09986399
000240 17 24 a9 3c 48 6c 35 3d 47 32 54 3d 15 bf f3 ba
       0.020647092 0.04429272 0.05180576 -0.0018596376
000250 8d bd 5a bc ff 71 05 bd 6d 63 21 3e 15 54 25 be
       -0.0133508565 -0.03257942 0.15760584 -0.16145356
000260 79 6e a1 bc 79 98 d6 bd 0f ee 66 bb 92 f2 0f bd
       -0.019705998 -0.104783006 -0.0035237109 -0.035143442
000270 20 44 23 3e e3 46 7c bc 9e 7a 41 3d fd 3b fe 3d
       0.15943956 -0.01539776 0.047236077 0.124137856
000280 e8 ae 79 bd 07 7b 42 3d be 90 e2 3d d9 9b 54 bd
       -0.06095782 0.04748061 0.11062764 -0.05190644
000290 66 db 24 be b9 15 28 3e be 60 99 bd a5 93 0b 3e
       -0.16099319 0.16414537 -0.07489155 0.1363054
0002a0 5b 04 2c be 3b f7 82 3d 67 ab 09 be 53 9d c5 3d
       -0.16798536 0.06394812 -0.13444291 0.09649148
0002b0 80 c3 81 3d f5 da 9b bd a7 f6 18 bd 9b 33 c2 3d
       0.06336117 -0.07610122 -0.0373446 0.09482499
0002c0 19 9c 12 be 66 9a 40 be 35 92 42 bc 4b eb f9 3b
       -0.14317359 -0.18808898 -0.011875679 0.007626926
0002d0 89 91 0e be 65 e8 eb 3c 79 a2 a8 3d da 30 2e bd
       -0.13922705 0.028797338 0.08234114 -0.042527057
0002e0 8a 20 2d 3d 17 6d 09 3e 16 1b bb bd fb 5d ce 3d
       0.04226736 0.1342052 -0.091360256 0.10076519
0002f0 d9 92 ae bd 03 9c b6 bd d9 70 be bd 4c 34 d7 3d
       -0.08524103 -0.089164756 -0.09298868 0.10508022
000300 ef cf 6f bd 7b f9 ad bd 49 86 21 be bd 04 c3 bd
       -0.05854791 -0.0849485 -0.15773882 -0.09522388
000310 b5 64 c3 bd d6 48 b8 3d b0 b0 90 3d 07 c0 cc 3d
       -0.09540693 0.08998267 0.070649505 0.09997564
000320 ef 03 c0 bd 21 6f 8d 3c 56 9f c6 bb cd 0e 85 bd
       -0.0937575 0.017264904 -0.006061475 -0.06496964
000330 a2 38 0c be c1 0c c8 3c 9b 2d 98 3d e4 2d 47 bd
       -0.13693479 0.024420144 0.074305736 -0.04862775
000340 cf 3d c7 bd de 00 3b bd da 3b 76 3c 19 2e 14 3e
       -0.09728586 -0.045655124 0.015028918 0.1447071
000350 e6 83 c1 bc c8 2c 99 3d cc 25 4a bd e4 88 a2 bd
       -0.023622464 0.074792445 -0.049352452 -0.07936266
000360 a2 d2 83 bd 6f d6 1d 3d 22 89 1c bc b7 be a7 3d
       -0.064366594 0.038534578 -0.009554179 0.08190673
000370 a8 82 a4 3b f2 ed b8 bd b7 c1 0c 3b f2 b9 ac bc
       0.0050204583 -0.090297595 0.0021477768 -0.02108476
000380 dd 81 a8 bd dd 71 fd bb 76 48 4e be 58 ad aa 3b
       -0.082278945 -0.007734521 -0.20144829 0.0052086525
000390 b5 27 c4 bd 06 10 34 3d d1 78 8f bd 21 0a 52 3e
       -0.09577886 0.043960594 -0.07005466 0.20511676
0003a0 86 e4 20 bd 85 a0 1d 3d 3d b2 05 bd b1 85 38 b8
       -0.039280437 0.03848316 -0.032640684 -4.399353e-05
0003b0 88 ad e8 3d dc ca ed bd c0 a5 05 3e 20 49 27 3e
       0.113612235 -0.11610958 0.1305151 0.16336489
0003c0 b4 b4 ab 3d f4 f9 06 bd aa 07 2c 3e 75 2a 00 3d
       0.08384076 -0.032953218 0.16799799 0.03129049
0003d0 2a 3e 83 bd bf 2a cc bc ab 5e 96 bd dc 69 f4 3c
       -0.06408341 -0.024922727 -0.07342275 0.029835634
0003e0 19 ed cd bd 71 8c c9 bd e6 cf db 3d 38 32 e4 3a
       -0.100549884 -0.0984124 0.10733013 0.0017409986
0003f0 5f 97 27 bb 76 7b 10 3c 89 85 ae 3d c6 3b e5 bd
       -0.0025572402 0.008818498 0.085215636 -0.111930415

2.bias f4 [64]
000000 9c 97 40 3d 93 02 76 3d 10 e3 37 bc 83 3c d7 3d
       0.047019586 0.06006105 -0.0112235695 0.105095886
000010 73 7c bb 3c 5b d9 91 3d 25 64 ab bd 1a 48 a4 3d
       0.02288649 0.071215354 -0.083687104 0.08021565
000020 d4 b4 0c 3d e6 70 81 bc d4 5b 1a be 7c 72 5a bd
       0.03435214 -0.015800904 -0.15074092 -0.053331837
000030 c4 20 bb 3d 91 47 07 bd 33 1f 90 3c af 9c 48 3c
       0.09137109 -0.033027235 0.017593002 0.0122443875
000040 40 b6 cb 3d e0 ee 25 bd f8 b8 51 3d 85 65 04 3d
       0.09946871 -0.040511012 0.05120179 0.03232338
000050 0e e3 e5 3c 2e b6 ce bd 7d 42 84 3d 5d 2e 92 bd
       0.02806237 -0.10093342 0.06457994 -0.07137749
000060 91 68 14 be 64 15 8d bd 3a 5b a3 bd c6 06 ed 3d
       -0.14493014 -0.068888456 -0.079763845 0.115735576
000070 6b 78 1d 3d e3 cb 16 be f9 9d a9 3d 55 2e 94 3d
       0.038444918 -0.14726214 0.08282084 0.072354
000080 ac fd d4 3d 52 da d5 3d 9d d5 12 be 7e 5b 8a 3c
       0.103999466 0.10442032 -0.143393 0.01688933
000090 78 3d 00 3e 3b 4d d3 3a 28 4f 99 bc 96 9d 7a bd
       0.12523448 0.0016121039 -0.018714502 -0.061185442
0000a0 97 95 a7 3c 64 be 85 bd 97 39 16 3e 10 23 50 bd
       0.020457072 -0.06530455 0.14670406 -0.05081469
0000b0 0f b5 89 3d 0f 1e e7 3d 8a 89 bc 3d ee b6 0e be
       0.06723987 0.1128503 0.09205921 -0.1393697
0000c0 e8 b1 d8 3d 8e 04 b1 bd 32 e6 b9 bd b8 c3 00 3e
       0.10580808 -0.08643447 -0.090771094 0.12574661
0000d0 36 22 a3 3d 22 0b a2 bd 78 59 c7 bd ed 62 93 3d
       0.079655096 -0.0791228 -0.09733862 0.07196603
0000e0 f2 c4 c1 bb c1 ca 03 3c a5 e1 b1 3d 21 09 de bc
       -0.0059133703 0.008043946 0.086856164 -0.027103962
0000f0 e7 ad 90 3d ca 93 da 3d dd 78 d1 3d a2 33 24 bc
       0.07064419 0.1067272 0.10228131 -0.010022076

4.weight f4 [4, 64]
000000 e0 cc 26 3e 16 e6 c4 bd 73 27 cc bd a0 42 28 3e
       0.16289091 -0.09614198 -0.09968462 0.16431665
000010 af be cb bd f3 eb 13 be 95 b3 c6 bd ac 56 19 3d
       -0.099484794 -0.14445476 -0.09702221 0.037436172
000020 c6 6a 04 3d 84 4f b4 3d 3c 27 de bd 79 9c 86 3d
       0.03232839 0.08804229 -0.10847327 0.065728135
000030 ed c2 4c 3d e2 b6 d7 3d 8a a2 c1 3d 10 27 5c bd
       0.049990583 0.10532929 0.0945483 -0.05374819
000040 24 b0 e4 3d a7 aa e1 3d fb d8 8c bc 3f af 51 bc
       0.11166409 0.110188775 -0.017193308 -0.01279813
000050 72 1b 05 be 5b 37 37 be 31 61 79 bd 89 71 a7 3d
       -0.12998751 -0.1789221 -0.060883705 0.08175952
000060 c7 8d 62 3d c5 0c ef 3d f6 99 bb bd 3f d5 92 3d
       0.05531099 0.116723575 -0.09160225 0.0716958
000070 ba 60 37 be 5b 0b 01 be 76 34 a2 bd 3a 70 d4 3d
       -0.17907992 -0.12601988 -0.079201624 0.10372968
000080 40 bd ac bd a4 79 bc 3d 94 99 09 bd ad 12 85 bc
       -0.08434534 0.092028886 -0.03359373 -0.016244257
000090 f8 f2 85 3d b0 60 9c bd 53 7a fb 3d a0 32 1a 3e
       0.06540483 -0.07635629 0.12279191 0.15058374
0000a0 4c ed 7f 3d 42 7d 77 bd cf 66 22 3d e0 0b b5 3d
       0.062482163 -0.06042219 0.039648827 0.088401556
0000b0 35 70 23 be 23 71 00 3e 03 55 8d 3c e7 1e a7 bd
       -0.15960772 0.12543158 0.01725245 -0.08160191
0000c0 3d d6 ba bd 73 63 22 bd 63 45 a8 bc ad 37 15 3e
       -0.09122894 -0.039645623 -0.020540899 0.1457202
0000d0 d8 1f 28 3e e0 f4 53 be 71 6f 14 be 8f 96 0e 3b
       0.16418397 -0.20698881 -0.14495637 0.002175722
0000e0 95 4e 2a 3e 81 7f cb 3d da 46 1f bd d9 7e 15 be
       0.16631539 0.09936429 -0.03888593 -0.1459917
0000f0 93 72 c3 bc 03 4d 01 bd 57 02 e3 3d c3 b4 94 bd
       -0.023858344 -0.031567585 0.11084431 -0.0726104
000100 84 55 0d 3e 92 a8 10 3e cd 58 21 be ff 9f 21 be
       0.13802153 0.14126804 -0.15756531 -0.1578369
000110 ec 29 a0 3d 4b 25 bf bd 6d 1a 7b bd d9 b0 c0 3d
       0.07820496 -0.09333285 -0.0613045 0.09408731
000120 a6 a4 e3 bd d4 9f 67 be de 75 90 3d b9 7e d6 bd
       -0.111153886 -0.22619563 0.070537314 -0.10473389
000130 3d b8 94 3d 75 48 f6 3c 1e af 24 3d de ff f6 3d
       0.07261703 0.030063847 0.040206067 0.120605215
000140 32 45 a2 3d 8a b7 9d 3d 4c 89 d3 bd c8 90 8e bd
       0.07923354 0.07701023 -0.10328922 -0.069612086
000150 0b 78 73 bd b7 ea 55 3e a2 a5 98 3d 95 b6 ea 3c
       -0.059440654 0.20890318 0.07453467 0.028651515
000160 1d bd 01 be 88 86 db bd 90 9e d4 3d 6d be c0 bd
       -0.12669797 -0.10719019 0.10381806 -0.09411321
000170 ed 93 31 ba 26 27 56 bd 1c 37 eb 3d da 27 23 be
       -0.0006774057 -0.05228343 0.11485121 -0.15933171
000180 9c 9e aa 3c f0 a9 be bd cf 28 4c 3d ab 0d 47 3e
       0.020827584 -0.09309757 0.049843606 0.19438808
000190 c6 f9 8b 3c 11 61 0b 3e c0 d1 2a bd 3b 35 a3 bd
       0.017086875 0.13611247 -0.04170394 -0.07969137
0001a0 93 1c 5a be 75 4d 48 bd ad 23 f0 3d 8f 36 fb bd
       -0.21299963 -0.048901994 0.117255546 -0.122662656
0001b0 ba c4 90 3d 40 4f fd 3c da 1b f5 bd a9 ca 9c 3d
       0.070687726 0.030921578 -0.11968203 0.07655842
0001c0 b8 87 dd 3d 22 97 55 3e f6 33 84 3d 0f 85 1d be
       0.10816902 0.20858434 0.06455223 -0.15382789
0001d0 12 e0 58 3d 5b b4 e4 3d cf 81 17 be e7 17 01 3e
       0.052948065 0.111672126 -0.14795612 0.12606774
0001e0 2a 01 94 bd fd b8 48 3d 97 67 2c 3e 7c 4e 4b bd
       -0.072267845 0.049004544 0.16836391 -0.049635395
0001f0 6f c3 1e 3d d6 e9 ee 3d 58 28 08 3e 17 6b c4 ba
       0.0387606 0.116656944 0.1329664 -0.0014985529
000200 85 dc 64 be 2a 85 c2 3c 58 37 ec bd 32 c4 0b bd
       -0.22349747 0.023745138 -0.115339935 -0.034122653
000210 a2 a4 9c bd d2 c0 b4 3d 16 1d 36 3e 6e 05 29 3c
       -0.07648589 0.0882584 0.17784533 0.010316236
000220 fb 7f 9f 3b cd 09 20 3e a7 9d 0c 3b b6 f4 b2 3d
       0.0048675514 0.15628739 0.0021456273 0.08738081
000230 f3 be 37 3e 74 cb 0e bd 70 a2 17 3e 3b 4f 1c 3e
       0.17943935 -0.034861997 0.14808059 0.15264599
000240 04 63 12 3e 15 98 92 bc cd 12 3b 3e 13 ac 6f 3d
       0.14295584 -0.017894784 0.1826889 0.058513712
000250 f2 25 18 3e 64 49 b8 3d f9 7e 35 be d6 4e e6 3d
       0.14858225 0.08998373 -0.17724217 0.112455055
000260 0b fa 97 bd 1a df 96 bd 5b 3e 96 3d 71 f3 c6 bd
       -0.07420739 -0.07366772 0.07336112 -0.097144015
000270 11 2e a2 3d 1b 5e d1 bd fb 70 67 3d 34 8c c4 bd
       0.07918943 -0.10223027 0.05650423 -0.09597054
000280 d8 40 78 3d c0 f4 c4 bd 3d 02 0f bd 67 11 49 be
       0.060608715 -0.09616995 -0.034914244 -0.19635545
000290 0c 20 24 3c 4b 6e 69 bd 84 8c bd bd c1 b6 8d bd
       0.010017406 -0.05698995 -0.09255317 -0.06919623
0002a0 d6 38 d7 3c 98 2e 61 bd 37 6b 8e 3d c1 32 a2 bd
       0.026272219 -0.054976076 0.06954043 -0.07919837
0002b0 97 67 74 3d 02 14 82 3d 84 2f 82 3d e0 58 21 be
       0.059669103 0.063514724 0.06356719 -0.1575656
0002c0 63 16 a0 3c 86 7a c9 bd 4f 59 e5 bd bb 20 10 bd
       0.019541925 -0.098378226 -0.11198675 -0.035187464
0002d0 57 3f 4b be cd cc 95 bc 2b e6 da 3d 45 03 f3 bd
       -0.19848381 -0.018286133 0.10688432 -0.11865858
0002e0 f7 bb fa 3c 69 c3 0f 3d 6f 39 5a be 7c 66 e5 3d
       0.030607207 0.035098467 -0.21310972 0.11201188
0002f0 b1 f8 1a be 8d 25 09 bd 7d 54 d0 bd c5 74 c9 bb
       -0.1513393 -0.033483077 -0.10172365 -0.006147953
000300 d7 65 e3 3d e2 8d f4 bd 89 97 01 3e 64 96 f5 bd
       0.11103409 -0.119411245 0.12655462 -0.11991575
000310 62 81 58 3d 6a c4 87 3d 1b 9e 2f bc e1 5f 43 be
       0.052857764 0.0662926 -0.010718848 -0.19079544
000320 73 f5 10 be 01 18 de bd 53 bf f6 3d 9f e1 ae bd
       -0.14156131 -0.10844422 0.12048211 -0.085391276
000330 6d 28 48 be df 0c dc 3c d4 ce 48 3d c3 de 37 be
       -0.19546671 0.026861606 0.04902537 -0.1795607
000340 83 35 52 bd d9 6a b9 bd bd 4d 21 3e fa 37 44 3e
       -0.051320564 -0.09053583 0.15752311 0.19161978
000350 7f 76 17 be 03 aa 17 be 35 8e 9d 3d a9 1c 22 be
       -0.14791296 -0.14810948 0.076931395 -0.15831245
000360 72 73 39 3e ef 5b d7 bd 7e 37 00 be 5f bc cd bd
       0.18110445 -0.10515582 -0.12521169 -0.100456946
000370 a2 ab 14 bd a8 74 aa 3d 37 33 86 3d 34 83 08 be
       -0.036296494 0.08323032 0.06552737 -0.133313
000380 01 1b 01 be c9 b5 1e bd 5f c2 ab 3c 7e 04 c1 3c
       -0.12607957 -0.038747583 0.020966707 0.023561712
000390 28 d6 a4 bd fd c0 a4 3d fe a4 c1 3d c2 c9 9b 3c
       -0.080486596 0.08044622 0.09455298 0.019017104
0003a0 b3 ea 0b be 3b aa 26 3e c4 b6 b5 bd fb 84 75 39
       -0.1366375 0.16275875 -0.088727504 0.0002341456
0003b0 82 1a 01 3d 29 6e 95 bd 34 70 34 be d7 f8 53 3d
       0.03151942 -0.07296402 -0.17620927 0.051750984
0003c0 87 6f c3 bd 58 e5 bc bd 07 25 28 3e b8 6c 41 3d
       -0.095427565 -0.09223431 0.16420375 0.047222823
0003d0 f5 0d 16 3e 6a 70 4e bd c1 c0 ee 3d 51 29 01 be
       0.14653762 -0.050400175 0.11657859 -0.12613417
0003e0 c8 71 17 be 87 d4 30 be 4f 27 b6 3d 6b 69 13 3e
       -0.14789498 -0.17268573 0.08894216 0.14395683
0003f0 09 ad 08 3e 6b c3 16 be 2f c0 60 3d e4 2d cd 3d
       0.13347258 -0.14722984 0.05487078 0.100185186

4.bias f4 [4]
000000 36 89 96 bb 27 90 2b 3d 18 73 be bd 5b 18 b7 bb
       -0.0045939935 0.04188552 -0.09299296 -0.00558762
