TLCS/models/model_55/trained_actor_model.pt (torch, 40695 bytes, 6 tensors)

0.weight f4 [64, 80]
00000000: 7aa3 a1be 4c87 4cbe 1444 febd c97b 90bd
00000010: ccb0 2ebe 7e80 29be 390e 2f3d 7da6 953e
00000020: 226c 0cbd 37b6 f1bd d31a e73c 51d3 0abe
00000030: e0f2 65be 1698 98be 8f54 bf3c e8bb 91be
00000040: b6f2 3a3e 63e6 363f 9995 8d3e 4836 693d
00000050: 9415 443d 8cbc 983d d33d 813d e10b 11bf
00000060: 3203 26bd 072c 98be 5acb 0dbf bc1a 0bbe
00000070: 7620 a43e 2b86 8dbd 2681 73bc 62bc 823e
00000080: 928b 553e 792e 793e 781c 8f3e 0986 b5bd
00000090: fa16 02bf b871 5dbe 0ad1 103f 07b5 0cbe
000000a0: 6b53 6cbe e737 46bd 7613 edbe 80fd 8bbd
000000b0: 3351 29be 83fc 39be ba7a 4d3d f234 fd3d
000000c0: 59bd 703d 95de e0bc 1dc0 b23d eaff 01bd
000000d0: bed5 f8bd 7260 1c3e 1972 963d ce7f a73e
000000e0: 4280 16bb bbb6 2c3f de16 023e ad3b 1bbe
000000f0: a1e1 19bd 3ce6 8b3e 8771 8a3c f080 4d3d
00000100: 2f07 b7bd 509d 3e3e a539 0a3d a2bf 88be
00000110: 343c 133d d995 f73d 8aad 493e 0330 173e
00000120: 3022 71bb 97e5 133e bfb0 4ebe ab03 b13e
00000130: fbb0 f9be 8cff b23d 96b5 e2bc 201c 093d
00000140: 420c d03d ac85 013f c9ec 7f39 472e ba3d
00000150: 3012 5d3d 9dc9 ea3c aa94 043c 9ea0 d03d
00000160: d735 2c3d 3557 fe3d 840f 64be b6c0 4ebd
00000170: 1b72 10bd 4201 c43d 1563 663d 4e5d 873d
00000180: 27c5 dfbd f710 733e 62f1 083f c037 9dbc
00000190: 66b5 60be c0a6 d0be 9262 003d 273a 123e
000001a0: 1fc6 153e e623 3a3e fef3 8d3e 12bf 4f3e
000001b0: dfb9 1abd 7b4a debd 6eba 343e eb3f d2be
000001c0: 9891 03be a42c 86bd a847 78bd 983c 53be
000001d0: 569c 6f3d 5871 f2bd 89cb b4be 9ee6 73bd
000001e0: 8bc9 ca3e 2e57 823e d8b1 e93e 9702 033e
000001f0: 97c6 0d3d c7a7 f63b 805a 023d 76eb 0c3e
00000200: 9a56 8d3e 7f88 8e3d af64 36be 6e3d ebbd
00000210: b661 1b3e 2ed3 833d 2fd7 f13d cf7b 2b3d
00000220: 06ec 0fbc 7955 1b3e df79 8cbe 0685 783e
00000230: f0e1 673d 4fe8 32bd 6368 f13d 9099 d0bd
00000240: e570 cabc fb42 afbd 886b 2e3e d515 31bd
00000250: 3301 843c e525 03be 9292 38bb dd56 c33e
00000260: 1d23 a53e 88b8 893d c383 3a3e e0c9 d4bc
00000270: 9bca ad3e 232e f93e b91b 3fbd 6158 023f
00000280: 4073 51bd 09ff 1c3e eb6f 9abd 89ea 0cbe
00000290: 0309 1ebd 6556 1dbe 5746 9f3e 1d9e 01bb
000002a0: 8da7 3abe b927 75bd b459 cdbd d7d1 cdbd
000002b0: 220b 87be 8b99 fabe 25d2 153c 6f24 0c3c
000002c0: 4890 853d a0d7 c03e 4447 123d ce13 b9bd
000002d0: 0dd4 85be 6a75 bdbd 199b 57be e89b 72bb
000002e0: f43f 863b b422 e93d 8980 b23d 135c 94be
000002f0: b9fa 45be edcf 493e 7ea1 8f3e b1a7 7c3e
00000300: e7b3 6c3e a481 233e 7aeb 073e 80ea 23be
00000310: 7fb7 d3be 767c 703e 0c9a 133f 6972 643e
00000320: 6742 f83d c805 85bd 5a21 62bd fb02 22bc
00000330: adc0 b43d 131f d8bb a8d8 42be 8246 81be
00000340: 6b55 ecbb debb b9bc d66d 33be b99c 28bb
00000350: 0af9 44be 5356 31bd 643a 023d 422d e63e
00000360: e8a6 043e 8a00 a63e d785 bc3e 113e 38be
00000370: 2251 dabd b5ec 2bbd 4037 083d 4b77 98be
00000380: d6ad 02bf e650 e83e 3f96 ba3e 41d6 babe
00000390: 263c 0b3c e9ea 3dbe 452e 493d 80ab c13e
000003a0: 17f4 a73e 77d5 053e 1a93 4abe 9014 813e
000003b0: a4e0 a33e 782f 653f 8ec5 a33e 83df 613e
000003c0: 6651 013d 0c60 c63e ea0c cabd 031b 003d
000003d0: c409 52be f588 f5be 0833 3abd 95bb a53e
000003e0: aef0 46be 7857 43be 10b6 8abe aa0b 993c
000003f0: e64c c6be 4a9d 093e edf7 393c 892e 4dbe
-0.31570035 -0.19973487 -0.124153286 -0.0705486 -0.1705963 -0.16552922 0.042738173 0.29228583
-0.03428281 -0.11802333 0.028211033 -0.13557173 -0.2245593 -0.29803532 0.02335575 -0.28463674
0.1825665 0.7144529 0.27653196 0.056936532 0.04787214 0.074578375 0.0631062 -0.5665875
-0.04053039 -0.2972109 -0.55388415 -0.13584417 0.32056016 -0.06910356 -0.014862334 0.2553435
0.20854023 0.24334134 0.27951407 -0.08863456 -0.5081631 -0.21625412 0.5656897 -0.13740931
-0.23078696 -0.048393156 -0.4630391 -0.06835461 -0.16534881 -0.18162732 0.05016587 0.12363614
0.058774326 -0.027449885 0.08728049 -0.0317382 -0.12150143 0.15271166 0.07345981 0.32714695
-0.0022964631 0.67466325 0.12704036 -0.15159483 -0.037568692 0.27324092 0.016899837 0.050171793
-0.08936917 0.18614697 0.03374638 -0.26708704 0.035946086 0.12089128 0.19695106 0.14764409
-0.003679406 0.1444305 -0.20184611 0.3457311 -0.48767838 0.08740148 -0.027674478 0.033474088
0.10158588 0.5059459 0.00024406904 0.09090858 0.053972423 0.02866059 0.008092085 0.10186885
0.042043533 0.12418977 -0.22271544 -0.050476752 -0.03526507 0.095705524 0.056246836 0.06609593
-0.10926276 0.2373694 0.5349332 -0.019191623 -0.21944198 -0.4075222 0.031344004 0.14279996
0.14626358 0.18177757 0.27725214 0.20287731 -0.037774917 -0.1085405 0.17649242 -0.4106439
-0.12848508 -0.06551483 -0.06061521 -0.20628583 0.058498703 -0.11838025 -0.35311535 -0.059546106
0.3960689 0.25457138 0.45643497 0.12793957 0.03461322 0.007527325 0.03182459 0.13761696
0.27605134 0.06959628 -0.17811845 -0.11486326 0.15173993 0.06436764 0.11808621 0.04186612
-0.0087843 0.15169324 -0.2743673 0.24269494 0.056611955 -0.043678578 0.11787488 -0.1018554
-0.024712035 -0.085576974 0.17033207 -0.04323371 0.016113853 -0.12807424 -0.0028163535 0.3815221
0.32253352 0.0672465 0.18214326 -0.025975168 0.33943638 0.48668012 -0.046657298 0.50916106
-0.0511353 0.15331663 -0.07540878 -0.13761343 -0.038582813 -0.15364988 0.31108353 -0.001977808
-0.18227978 -0.059852336 -0.10026875 -0.100497894 -0.2637568 -0.4894527 0.009144341 0.008553608
0.0652166 0.3766451 0.035712495 -0.090369806 -0.26138344 -0.092509106 -0.21055259 -0.0037019197
0.0040969793 0.11383572 0.087159224 -0.28976497 -0.19333924 0.19708224 0.28052896 0.24673344
0.23115502 0.15967423 0.13273421 -0.16007423 -0.41350934 0.23484978 0.5765693 0.22309269
0.1212204 -0.06495243 -0.055207588 -0.009888406 0.088258125 -0.006595501 -0.1902796 -0.25249106
-0.007212331 -0.02267259 -0.17522368 -0.002572818 -0.19235626 -0.043295216 0.031793967 0.44956404
0.12954295 0.32422286 0.36820862 -0.17992426 -0.10660006 -0.04197379 0.033255816 -0.29778513
-0.510465 0.4537422 0.36442754 -0.36491588 0.008498227 -0.18546642 0.04911639 0.37826157
0.32803413 0.13069712 -0.19782677 0.25211 0.32007325 0.89525557 0.3198666 0.22057919
0.03157177 0.38745153 -0.098657444 0.03127576 -0.20511538 -0.47956052 -0.045458823 0.32369676
-0.1942775 -0.19076335 -0.27092028 0.01868232 -0.38730544 0.13438907 0.011350614 -0.20037283

0.bias f4 [64]
00000000: 9e44 313e 7be0 09bd 1251 9fbc a59b 19be
00000010: 2eb4 40be 6fd8 4f3c ca75 acbe 0d01 1dbe
00000020: 8f9e 433e af54 0a3d bffc 0bbd 1958 2cbe
00000030: f940 5b3e 6e49 363e 14cb 9bbd 0c59 4a3e
00000040: ee17 553d 2456 5d3d c45d 533d 786e 823d
00000050: c967 9b3c d3f8 1c3e f3b4 bb3d bfc3 94bd
00000060: 1484 843e 8180 fdbd 6529 9dbc 7cf3 3339
00000070: d35e 07be aa5d 04be 095b 693d d378 96bd
00000080: dfd2 3a3d 8cd5 a33c 1cf4 e3bd 9306 ad3d
00000090: 7873 c83d 5c36 05be 388b adbc 81c7 bc3c
000000a0: 33ab e33d 5d0d 103e 8f1d f73d 9770 713d
000000b0: 8a1c 7d3c 42af 52be bd93 113e 9ed3 193e
000000c0: 27d3 bbbd 4e9a 07be 6254 f53d b8d9 b2bd
000000d0: 345d a13d 2963 81bd 36ee 1abd bcf4 8d3c
000000e0: b20f dcbb bc26 0dbd be13 e53c 7958 9fbd
000000f0: 930a 633d a686 31bc 4740 49be 6a60 1abe
0.17311332 -0.033661347 -0.019447837 -0.1500078 -0.18818733 0.012685879 -0.33683616 -0.15332432
0.19103454 0.033772167 -0.034176584 -0.16830482 0.21411504 0.17801449 -0.076070935 0.19760531
0.052024774 0.05403723 0.051603094 0.063687265 0.018970387 0.15329294 0.09165373 -0.07263898
0.25882018 -0.12378026 -0.019184778 0.00017161475 -0.13219766 -0.12926355 0.056971584 -0.07347264
0.04561126 0.019999288 -0.111305445 0.084485196 0.09787649 -0.13009018 -0.021184549 0.02304435
0.11116638 0.14067598 0.12066185 0.058945265 0.015448699 -0.20574668 0.14216514 0.15022132
-0.091711335 -0.13242456 0.11978985 -0.08732933 0.07879105 -0.063177414 -0.037824832 0.017328613
-0.006715738 -0.034460768 0.027963515 -0.07780547 0.055430006 -0.010835325 -0.19653426 -0.15075842

2.weight f4 [64, 64]
00000000: 47bd 2bbc a71f adbe bd25 77be be05 83be
00000010: d282 b93c 7617 85bd 26e3 91bb 3072 c8be
00000020: f28e d33e 087b a6bd 805b bdbd 1cd8 11be
00000030: a7d4 90bd 7f91 503e 60d5 31be 26fb f4bd
00000040: c10c 59bd 84db 6abe 3f81 91bc 6123 243e
00000050: 9bf5 e1bd 72cd 7f3e c6c7 0abb 6303 b8bb
00000060: bc5f 773d a6e5 a2be cddc b83e 7fb9 973c
00000070: 5e56 febd 28ac 6abe d1cb 883d f2a4 0bbe
00000080: 2209 87bd 09f8 b3be 1c51 a83c 1597 243e
00000090: 2649 bfbe 2bbd 3b3e 3a57 ed3b 209d 3f3d
000000a0: fb96 8dbe e269 533d 3b2f 46bd f15d fbbd
000000b0: c28a c73d d42c 343d 1039 973d 9f54 23be
000000c0: d633 3e3e 4be4 72be 31e3 8b3e e191 e4be
000000d0: 14cf 423d ab70 4a3e f637 843d 662b e0bd
000000e0: 390a a03e afc6 e0be 7cbd cfbe 14a7 d2be
000000f0: 51a8 07be 7147 b73e 7ecd c63e 1f0f 64be
00000100: c8c4 1cbe e48e 213e 959c 72be 73b0 d7bd
00000110: 779e 313e 0854 92be 8efd a0bd 7cad 313e
00000120: 4b5d 773e a2d4 97bc d3dd 453e 3c18 bcbe
00000130: 31e5 61bc 8bfa 893d e4b7 0cbe 82fe 2bbe
00000140: 9ddb ce3e cf20 e9be 222a 0abc 095c 6e3e
00000150: 3c85 973d 9759 9fbe 981b 8d3e 5a91 3a3d
00000160: faef 203d b26d 75be 1793 903e 047e 20be
00000170: 9fc0 4ebe d536 82be 7451 51bd 9414 46bd
00000180: 1665 8bbe 7ab2 f9bd 2de8 9d3d 5764 293e
00000190: e780 ecbe 251c 61be fa0c d6bc 0bab d73d
000001a0: 735d b83c 604a c03e a03c 03bf 62da 283e
000001b0: 7c70 193e b12c 7e3e 1994 c53d 615d babe
000001c0: abef 343e 06e9 21bd 2e1c 793e b665 c9bc
000001d0: aafd d53d 6671 a4be 0122 6e3e 55f4 153e
000001e0: 4d8a df3e 4e07 9abe 219b e8be 72fd 36be
000001f0: b2b3 28bd cb20 9c3e 17bd 0a3f 4d49 02bf
00000200: d675 ffbd cdfd b53e 67d2 3d3e a52f 863e
00000210: 233d 28bf d721 9f3e c556 b83d e639 de3d
00000220: 0a8f 31bd d581 323d 7ef3 b3bc 3901 2b3e
00000230: d9dc 0fbe 2cdd 93be 48f1 613e 2691 8c3e
00000240: 8fec 99be affd d73e 63b0 a8bd 44fb 49be
00000250: 01a2 713d 73d2 023e a952 72be 5ee0 473e
00000260: 91a7 02bd d410 873e 0fd5 bdbe 1e06 af3d
00000270: 966a f03d e756 183f d152 da3d 3f12 fd3d
00000280: 17bb 9a3e a14d 573c 099c b13d 73ea c9be
00000290: f64f cb3e 5fb7 b43d db3c a5bc b139 95bd
000002a0: 2034 383d fbc6 833c 148b 4b3e 06d5 413e
000002b0: f858 04bf 86c2 dabe eb2e 463e a17f 653e
000002c0: f16d 88be acff 12be 8868 36bd ee8e 7f3e
000002d0: 1c91 b9be ad58 d8bd 99fb 863c e6ab c7bd
000002e0: b325 abbd f681 f53e 1311 d13e 68be 383e
000002f0: dbad e23e 2924 cdbe a986 acbe ff16 80bb
00000300: 9143 793c d4be 8b3e da26 a13e 0828 bebd
00000310: 7f58 673e 4acf 53be 3338 45be 12b7 bd3e
00000320: d56c bd3d 8822 5d3c f1f5 5a3e 59b4 3cbb
00000330: c375 11be ae9b 7a3d bd27 b4bd 4fef 1c3e
00000340: dc71 c23d 12c2 973d f310 54bd 4d82 7ebd
00000350: 21ec 91bd 10ae 55be 4e33 903d 8f32 00be
00000360: 7ce7 a13d 65a9 d0bb 6ac5 b0be 8dc6 493e
00000370: 5738 18be 1887 18bd ad0b 8c3e 261c ef3e
00000380: a659 953d b7e7 883e a749 ef3d 3021 bbbe
00000390: 7c05 aa3e 821f 5bbe ed21 aa3e b411 dabe
000003a0: 5a63 b33e a0c0 36bc 927e 853d 0e2c 313e
000003b0: 0816 a6bd 09e4 59be b735 463e 1081 adbc
000003c0: 5592 bcbd 8bba 7c3e e3c6 113c 8387 fc3d
000003d0: b22c 11be d92e 4c3d dbad 693e 5918 8a3e
000003e0: 60ef 22be 3dad d23c 1c1c 113f bc94 2b3f
000003f0: 0d1a f5be 1dbc 00be e737 8cbe f20c 4bbe
-0.010482139 -0.3381321 -0.2413549 -0.25590318 0.022645388 -0.064986154 -0.004452127 -0.39149618
0.41319996 -0.08128935 -0.09245968 -0.14242595 -0.0707181 0.20368002 -0.17366552 -0.11961965
-0.05299068 -0.22935301 -0.017761825 0.16029121 -0.11033174 0.24980715 -0.0021176203 -0.005615638
0.060394034 -0.31815833 0.36105958 0.018521069 -0.12418817 -0.22917235 0.066795 -0.1363714
-0.06593539 -0.35150173 0.020546488 0.16073258 -0.37360495 0.1833388 0.007243064 0.046780705
-0.2765425 0.05161465 -0.048384886 -0.12273777 0.09743263 0.043988064 0.07383931 -0.15950249
0.18574461 -0.237199 0.2732177 -0.44642547 0.047560766 0.19769542 0.06455986 -0.109457776
0.312578 -0.43901584 -0.40574253 -0.41143095 -0.13247801 0.35796693 0.38828653 -0.22271393
-0.15309441 0.15777165 -0.23692544 -0.10531702 0.17345606 -0.28579736 -0.07860862 0.17351335
0.24156682 -0.018534008 0.193229 -0.3673724 -0.013787554 0.067372404 -0.13742024 -0.16796306
0.40401927 -0.45532843 -0.008432897 0.23277296 0.07398459 -0.3112304 0.27560115 0.045548774
0.03929136 -0.23967627 0.2823722 -0.15673071 -0.20190667 -0.2543246 -0.05110307 -0.04835947
-0.2722556 -0.12192245 0.077103 0.16542183 -0.46192095 -0.21983393 -0.026129235 0.10530671
0.022505498 0.37556744 -0.5126438 0.16489556 0.14984316 0.24821736 0.09647388 -0.36399367
0.17669551 -0.03952887 0.24327156 -0.024584632 0.10448773 -0.32117766 0.23255159 0.14643987
0.43660203 -0.30083698 -0.45430854 -0.17870119 -0.041186996 0.3049377 0.5419478 -0.508931
-0.12473647 0.35545197 0.18537293 0.26208225 -0.6571829 0.31080505 0.09000925 0.10850887
-0.043349303 0.04358085 -0.021966692 0.16699685 -0.1404909 -0.28879678 0.22064698 0.2745449
-0.30063292 0.42185733 -0.08236768 -0.19724756 0.05899239 0.12775593 -0.23664345 0.19519183
-0.031898085 0.26380026 -0.37076613 0.08546089 0.1173908 0.595076 0.10660327 0.12356996
0.30220863 0.013141067 0.086723395 -0.39436683 0.39709443 0.08824038 -0.02017062 -0.072863944
0.044971585 0.016086092 0.19877273 0.18928918 -0.51698256 -0.42726535 0.19353835 0.22411968
-0.2664638 -0.14355344 -0.044533283 0.24956867 -0.36243522 -0.105637886 0.016477393 -0.09749584
-0.083568 0.47950715 0.4083334 0.18041384 0.44273266 -0.4006665 -0.33696488 -0.0039089913
0.015213863 0.27294028 0.31474954 -0.09284979 0.22592352 -0.20684543 -0.1925972 0.37053734
0.09249274 0.013497002 0.21382882 -0.002879402 -0.14205079 0.061183624 -0.08796642 0.15325664
0.09494373 0.07410063 -0.051773977 -0.062135983 -0.07125116 -0.20867181 0.070410356 -0.12519287
0.0790548 -0.0063678497 -0.34525615 0.19704647 -0.14865242 -0.03723821 0.27352658 0.46701163
0.0729249 0.26739284 0.1168397 -0.36548758 0.3320731 -0.21398738 0.33229008 -0.4259163
0.35036737 -0.011154324 0.06518282 0.17301962 -0.08109671 -0.21278395 0.19356428 -0.021179706
-0.09207598 0.24680535 0.008897516 0.12330534 -0.14177206 0.049849365 0.22820227 0.269717
-0.15911627 0.025717372 0.56683517 0.67023826 -0.47871438 -0.1257176 -0.273864 -0.19829157

2.bias f4 [64]
00000000: 3125 e93d 629e a4bd 1c9b 433d 71d4 803d
00000010: 7c6f 74be 2a84 6c3d 2d0b a03e dbad 713d
00000020: 8575 b83c c1b0 203c 599c a2bd 4758 c03d
00000030: f2dd 293d 161d 11be eb5e 153e 8a37 3f3e
00000040: 8a7b 083e 77e9 3d3e a585 70bb 3ee1 6dbd
00000050: a3a9 a23d 8f15 713e 2d34 fdbc b391 f5bb
00000060: a1e3 86be 85ff 43be 2b49 533e 62e1 523e
00000070: a6c7 3ebe ba30 49bb 6215 d2bd d233 1c3e
00000080: 0593 283e c1ff 73bc faab f3ba 6abe 01be
00000090: 3bd6 3f3e 655c 68be ba00 fdbd a777 7ebe
000000a0: 617b 72bc efdf f9bd 772d 5f3e f57b 5ebe
000000b0: 2c46 803e 8c09 fcbd 1ce9 853e c83f b0be
000000c0: 77bd 6d3d 0f47 f03b 159e 77be cdc9 4bbd
000000d0: 550c 4f3d 53f2 2f3e 2c7c e3bb 7668 d6bd
000000e0: 2986 0e3e 2993 3a3c eb28 853d 75f3 6c3e
000000f0: adf8 a03d fdc7 34bd b09b e83d 6c86 c2bd
0.11384047 -0.080380216 0.047755346 0.0629052 -0.23870653 0.05774323 0.31258526 0.059003692
0.022516975 0.009807766 -0.07939977 0.093918376 0.04147143 -0.14171252 0.1458699 0.1867353
0.13328376 0.18546091 -0.0036700752 -0.058076136 0.07942512 0.2354338 -0.030908668 -0.0074941753
-0.26345542 -0.19140442 0.2063338 0.20593789 -0.18630847 -0.003069921 -0.10257985 0.15254143
0.16462334 -0.014892519 -0.0018590682 -0.12670293 0.18734066 -0.22691496 -0.12353654 -0.24850331
-0.014799924 -0.12200915 0.21794687 -0.21726973 0.25053537 -0.123065084 0.2615441 -0.3442366
0.058042016 0.0073326896 -0.24181397 -0.049753 0.05054887 0.17182283 -0.0069422927 -0.10469143
0.13918366 0.011387625 0.06501945 0.23139746 0.07859931 -0.044136036 0.1135782 -0.09498295

4.weight f4 [4, 64]
00000000: b576 ad3e 8ea7 0cbe 3e3a 84bd 764b dbbd
00000010: 5a81 b4be 1c3d 68bd 01b8 0f3e 17bb 07bd
00000020: 55cf a7be 46b6 4fbe b840 f03d a94f 6e3d
00000030: 4677 6a3d b1ee 493d 8d7f 183e dcb7 edbc
00000040: 118d ae3e 3b68 ed3d 4763 533e 86eb 01be
00000050: 2b79 ac3d bd65 ea3e b0f4 56be 2da9 6c3b
00000060: 973d 21be 34cc cd3d f17a a93e 596f b03e
00000070: 2273 7abe 6636 3a3d ef7c 883c c98e b43d
00000080: c4f1 dcbd e096 02bd 0897 75be 0b7d b3be
00000090: 5a90 ab3e cc50 06bf 919a 8f3d a18f 0abe
000000a0: e4ca 913e a31b adbd d2c3 153e e171 cebe
000000b0: 8e30 5d3e 702e c7bd 87f1 6a3e 9e38 203b
000000c0: 9c8f 89be aec7 a23e c16e a0be f43a 92bd
000000d0: d946 bb3d a203 89be a127 01bf 6361 a73e
000000e0: c075 3c3e b54e cdba 9d17 91bd 7a4c aabe
000000f0: b2dd 8a3d 194f c5be 6f56 6a3e 880f 96be
00000100: d3b8 febc da42 59be ca4c 273e ef51 5f3e
00000110: 5590 d13c f617 753e f7b4 d33d a8d6 773e
00000120: 100b bb3d ef8a 173d f25b c23d 0ec9 f33d
00000130: 5b93 e83d 3c73 74be dbef 693e f03c bd3e
00000140: 9154 6dbe abe3 62be 1f66 3bbe 419d 5c3e
00000150: 9da8 a9be b624 8ebe 349e 0dbe ff92 96be
00000160: afb3 bf3d b395 90be d83b 5dbe 6423 443d
00000170: 4b25 ab3d 482b 293e e7b2 883d 7ee2 59be
00000180: 810b 1e3e de18 eabe 8446 163e 6a98 4a3d
00000190: db7c 5fbe 665a e1bd cd35 89be d327 053f
000001a0: 315a e4bd 9ef9 c3bd d447 9dbe 3876 a13e
000001b0: 4676 c73d d446 73be a2c0 23be 3f41 953e
000001c0: 22a6 3e3e e564 1c3e 4d3a 1ebd 25a2 ea3e
000001d0: 5345 6fbe 2544 9f3e ce74 913e 0a93 77bd
000001e0: fbdf 50be 2c8d b93e eaba fcbe cea7 e43e
000001f0: 470f 193e 2062 293e fd40 4f3c ef1f 2d3e
00000200: 0e58 b2be 06b8 90bc f555 bf3d 90d2 7d3e
00000210: b16f 793e 2fc9 b53d 2c87 c3be ad5d 1fbe
00000220: 4cb1 f83e dbc9 963c fa84 f1bd 8dfc 503e
00000230: 2ca7 f9be 2914 293e 6927 eebe 3eee e0be
00000240: b304 4a3e 3e57 063e 4974 21bf 963f 9fbe
00000250: 32d2 543e 1f20 c03d 393a 5dbe 3590 673e
00000260: c740 b6bd 1d81 c83d 995b 353e d432 8fbe
00000270: 12d7 003f e3ab eabd f94f efbd f5c5 97bd
00000280: 67ce 5f3e b5d9 a3bc e59d aebd ae4b 8c3e
00000290: 4ee2 053e d4f3 a63e 68db 54bc 2a7f 82be
000002a0: 4641 97be 1f6d fabd 9cce 2c3e a7e4 55bd
000002b0: 450f 953c 78b5 3f3f 3193 ca3d c35a 8a3c
000002c0: 875d 273f 0254 303e 6871 f93d a6ec 5fbe
000002d0: 3579 0a3e 4083 2d3e 150b dc3d f628 9dbe
000002e0: a4f7 6b3e 3ef1 09be a0ae 203e 3748 aa3e
000002f0: 350a 12bf 447d 36bd d783 09bd 9ee6 2cbd
00000300: 6082 f03d 1be5 943e 7212 c3bd a1da 9ebe
00000310: ceda 0abe 5ccc b2bd 0d05 6b3d 744c 493e
00000320: 8a23 fbbd 4377 3d3e 1e45 c23e 94b3 7dbe
00000330: 8239 fb3d fb6e dcbd b447 ba3c d6d3 533e
00000340: 2b4b 85be bfd4 febd d965 d63d 3d5e 163e
00000350: ee3f 013e c7f1 8fbe 8005 e63d 7e3f 96bc
00000360: 893b b93e 2e70 9dbc 6c38 d6bb 0842 a33e
00000370: 2a47 71bc 5020 3a3e 11b9 b83e 3af5 2abe
00000380: 4be6 c2be 8533 d63d 657a ce3d 58a1 64be
00000390: 0420 24be cfbb 1c3e dcfd 24be 7af4 69be
000003a0: 8157 c73d 58ac 5dbc 15ee 8bbe f491 b93e
000003b0: 3951 acbc 3748 43bb d59a a1be 0ee9 20bd
000003c0: 8062 30bd ec36 3cbd 9c3b 5e3e bc12 8bbe
000003d0: 1c54 07be 9e87 29be 1852 ecbd b3da bd3d
000003e0: f4ef 18be fb08 8cbd c753 613e fd7c b9bd
000003f0: e358 483e 905c 57be 10f5 83be acb5 363e
0.3387963 -0.13735792 -0.06456421 -0.107077524 -0.35254937 -0.056698903 0.14035036 -0.033137407
-0.3277537 -0.20284376 0.11731094 0.05818144 0.057242654 0.0492999 0.14892407 -0.029018335
0.34092 0.11592146 0.2064334 -0.12687501 0.084215485 0.45780745 -0.20991778 0.0036111579
-0.15746151 0.10048714 0.3310161 0.34459952 -0.24457982 0.045462035 0.016661135 0.088162966
-0.10788301 -0.031882167 -0.23983395 -0.35056338 0.3350857 -0.52467036 0.07011903 -0.13531353
0.28475106 -0.08452537 0.14625481 -0.40321258 0.21600553 -0.09725654 0.22943698 0.002444781
-0.26867378 0.3179297 -0.313345 -0.07140151 0.091443725 -0.26760584 -0.50451094 0.32691488
0.18404293 -0.0015663715 -0.07084582 -0.33261472 0.06780566 -0.3853691 0.22884534 -0.29308724
-0.03109399 -0.21216908 0.16337886 0.21808599 0.025581518 0.23934922 0.10337251 0.24202979
0.091329694 0.03699773 0.094901934 0.119035825 0.11356231 -0.23872083 0.22845404 0.36960554
-0.23176791 -0.22157161 -0.18300675 0.21544363 -0.33136454 -0.27762383 -0.13829881 -0.29409024
0.09360444 -0.2823921 -0.2160486 0.047885314 0.083567224 0.16520417 0.06674748 -0.21277806
0.15434076 -0.45722097 0.14675337 0.04946176 -0.21824972 -0.1100357 -0.2679886 0.5201389
-0.11150015 -0.09569095 -0.30718863 0.31535506 0.09739356 -0.23757488 -0.15991452 0.2915134
0.18618062 0.15272863 -0.03862982 0.4582683 -0.23366289 0.31106678 0.28409427 -0.06044296
-0.20397942 0.36240518 -0.49361354 0.44659275 0.14947234 0.16541338 0.012649772 0.16906713
-0.34832805 -0.017665874 0.09342567 0.24787354 0.24359013 0.08876263 -0.38189065 -0.15563078
0.48572767 0.018406799 -0.117929414 0.2040884 -0.48760355 0.16511597 -0.46514443 -0.43931764
0.19728355 0.13119218 -0.6306806 -0.311032 0.20783308 0.093811266 -0.21604241 0.22613604
-0.08899074 0.097902514 0.17710723 -0.27968466 0.5032817 -0.11458566 -0.116851754 -0.07410804
0.2185608 -0.020001272 -0.0852621 0.2740149 0.1307461 0.326079 -0.012991764 -0.25487643
-0.29541987 -0.122278444 0.1687569 -0.052220013 0.018195758 0.74886274 0.09891356 0.016888982
0.65377086 0.17219546 0.12179834 -0.21867618 0.135228 0.16944599 0.10744301 -0.30695313
0.23043686 -0.13470933 0.15691614 0.3325822 -0.57046825 -0.044553056 -0.033572998 -0.04221212
0.11743617 0.29081044 -0.095250025 -0.31026176 -0.1356003 -0.08730385 0.057377864 0.19658071
-0.12262638 0.18502526 0.37943357 -0.24775535 0.12266828 -0.10763355 0.022739269 0.20686278
-0.2603391 -0.12442922 0.10468645 0.14684387 0.12622043 -0.2811415 0.11231518 -0.018340822
0.36178234 -0.01921853 -0.0065374877 0.31886315 -0.0147264395 0.18176389 0.36078694 -0.16695109
-0.38066325 0.10459045 0.10081939 -0.22327173 -0.16027838 0.15306018 -0.16112465 -0.22847167
0.09733487 -0.0135298595 -0.2733008 0.36244166 -0.021034824 -0.0029797682 -0.3156344 -0.03928476
-0.043062687 -0.045950815 0.21702427 -0.2716273 -0.13215679 -0.1655564 -0.11539096 0.09270229
-0.14935285 -0.068376504 0.22004615 -0.09057043 0.19565158 -0.21031404 -0.25772905 0.1784274

4.bias f4 [4]
00000000: 3cf0 673e 5d90 9cbd 1488 96bd 22e2 e8bd
0.22650236 -0.076447226 -0.073501736 -0.113712564
