TLCS/models/model_53/trained_actor_model.pt (torch, 40695 bytes, 6 tensors)

0.weight f4 [64, 80]
00000000: 2f58 5fbe 6112 2d3e b312 8b3c 94eb 0c3d
00000010: e2dd 9dbe 9e31 01be 98e0 2d3e b1ae 3ebe
00000020: e18b ba3e 87f1 b13c 51d6 4cbd 6385 773c
00000030: 4ab1 903c 66a6 b4bd 0133 433e ef36 b1bc
00000040: 7c1b c5be b983 6f3e d86d b0be 4e5e 8cbe
00000050: 248b a1bd b2ee 51bd 36cf 8abb 7d59 06be
00000060: 3e01 99be d4e2 b1be 1913 31be 2464 22be
00000070: e0c5 633e fd99 383e 3620 063e 440b d23d
00000080: bace 513e 7f6e a13d b472 8bbb 76b0 19bd
00000090: 8698 e8bd e26c 76be dcd1 87be 4001 a03c
000000a0: 5d68 5abe be9c 06be 72db 93bb f731 293d
000000b0: a37a 9abe a1df 20bf 70af 1d3e 7a96 35bd
000000c0: ce92 b23e a9f0 4f3d 3a57 e83e efff 433e
000000d0: 5bfb c33d 3182 ea3d 812f df3c 4212 3bbe
000000e0: d9f1 e13d 8b3c 033f 436e 593e 7525 f33d
000000f0: 48cb 0abe 942e 5dbe dda0 73bd 2bca 973c
00000100: 8568 babe 1f97 c4bd 1741 7dbe 6d52 88bd
00000110: 34e9 16be 7a60 e9bd 2c5f 8d3d 3a94 0f3d
00000120: 4765 073d 6891 b13d cbbb 0c3e c340 6b3c
00000130: f3f8 d7bb 8273 95be c038 bdbe 0108 323f
00000140: 70be c73b ae35 bfbd b174 a9bd 64b9 47be
00000150: 9ee0 2ebd 917c 8bbd da39 a9bd fdf7 543e
00000160: a6dd 7d3d 14d5 ecbd 761a 6d3e 1e4c c93e
00000170: 15e0 633e 35ae 433e ceb4 6b3e 4c9d e73e
00000180: b532 63bd 43db bbbd 3019 a6be 5745 893c
00000190: 212b 2c3e cff1 c73d dab9 9f3d eb2b af3e
000001a0: faa4 88bd de2e 953e 7198 c33c 3d22 d43d
000001b0: 9750 c6bc c41e 12bc 4705 db3d 3d84 db3d
000001c0: af4d 9b3d be5f 313d eebb 253e d1b9 103e
000001d0: df1d 063e a675 7b3e 6684 87be bd1e 933e
000001e0: 3269 343c 1ba9 f8bd dfdf 113d bf8f f1bd
000001f0: 9e3b d5bd 9309 9b3c d80c c23d 90e1 8f3d
00000200: 38be fc3d 7e5c 60be e5a4 843e 3650 ac3e
00000210: 08d1 883e 16b5 463e ab31 983e c0b9 083e
00000220: 9333 64bc 63be 9a3e 9817 96be f5f6 67bd
00000230: 93cd e93d 85d1 3fbc 5040 813e 43f3 e73d
00000240: 2e50 0e3e 2789 3a3e c79b 9f3e f9ec ccbc
00000250: 0205 98bd e02e 8cbe c4ba d53b ab9b a03e
00000260: 93b1 4c3e 99e7 c23d e495 833e c210 b63d
00000270: abae 2b3e 85bf 223d fbd1 e0be 4b2a 963e
00000280: e0a5 ca3d 6b63 e13c aef2 d03c 28c6 1a3c
00000290: a6cb 683b 5102 21be b80f bf3d 4319 b33e
000002a0: 0258 34be e0ad d2bd c832 663d db21 1fbe
000002b0: 54e5 03be 4bc2 3e3d 9fe4 f7bd 979f 6abe
000002c0: 6933 5b3d fc3d 1fbe 287b 023f b0c3 e23d
000002d0: 26d0 7bbd 70af dcbb b00b 433d 5673 0ebe
000002e0: 3e43 803d 3943 88bd f09a 51bd c966 6d3d
000002f0: 3c71 29be 87fb 673d 5346 59be b51f 2cbe
00000300: e8f3 8dbe 1f84 a1be ece5 a9bd 0c9a 74be
00000310: 86c3 703e 87bc 52bd b060 8d3e a4ba 83be
00000320: 96c6 be3d 0c29 a9bd 971e 4a3d db6e 0d3e
00000330: a849 bdbd 9072 613e 1251 6c3d 4ca1 88bd
00000340: 2e23 c2bd 46c2 2cbe 497e a4bd 7db4 503e
00000350: f89a 2e3d eb76 19bc 523b 10be efd4 9fbd
00000360: edac abbd 9cd0 843d 780e 1b3d 9260 55bd
00000370: c888 5fbe c3b9 f03d 1080 043e 0b4d 203d
00000380: 416d 89bd d798 2cbd df42 96be 9de8 b73d
00000390: 9812 b53d 4399 813d 4238 97bd 04a2 2cbe
000003a0: 0782 52be ab3b d0be e160 94be 7e67 06be
000003b0: 62e0 6bbe 88c3 753e c63b 8a3e 3aec 3fbe
000003c0: 5ab9 c33d d358 8e3d 9c15 04bd c19a c33d
000003d0: 9551 293c ab16 40bd dcb4 d6bd 50d7 bc3e
000003e0: 286f 0d3e 6c90 7c3e ebd5 6f3e bda8 0d3e
000003f0: 6ec6 4e3e 39e1 083e a204 4c3e 8b46 c2bd
-0.21810983 0.16901542 0.01697669 0.034404352 -0.30833346 -0.12616584 0.16980207 -0.18621327
0.36434844 0.021721615 -0.050009076 0.0151074855 0.017662663 -0.088208005 0.19062425 -0.02163264
-0.3849753 0.23390092 -0.34458804 -0.274157 -0.07887867 -0.05125303 -0.0042361272 -0.13120075
-0.2988376 -0.3474337 -0.17292441 -0.15858513 0.22243452 0.18027492 0.13098225 0.10256055
0.20489016 0.078824036 -0.004255617 -0.037521802 -0.113572165 -0.24064973 -0.26527297 0.019531846
-0.21328874 -0.1314573 -0.004512244 0.041307416 -0.3017169 -0.6284123 0.15398955 -0.04433296
0.34877628 0.05076662 0.4537905 0.191406 0.095694266 0.11450613 0.027244331 -0.18268684
0.11032457 0.51264256 0.21233468 0.11872379 -0.13554108 -0.215998 -0.059479583 0.018529018
-0.36407867 -0.095991366 -0.24731861 -0.066563465 -0.14737397 -0.113953546 0.06902918 0.03505347
0.03305557 0.08670312 0.13743512 0.014358702 -0.0065909564 -0.29189688 -0.3695736 0.69543463
0.0060957 -0.093364105 -0.0827421 -0.19504315 -0.04269468 -0.068108685 -0.082629874 0.20797725
0.06197896 -0.11564079 0.23154625 0.39315885 0.2225345 0.19109423 0.2301819 0.45237195
-0.05546828 -0.0917268 -0.32441092 0.016756697 0.16813327 0.09762918 0.0779912 0.34213194
-0.06672092 0.2913732 0.0238764 0.10358093 -0.02420835 -0.008918468 0.10694366 0.10718582
0.07583176 0.043304197 0.1618497 0.14133383 0.13097332 0.24556598 -0.264682 0.2873439
0.011011409 -0.12141629 0.03561389 -0.117949955 -0.10411762 0.018925464 0.09475106 0.070254445
0.12340969 -0.21910283 0.25907055 0.33654946 0.26721978 0.19405016 0.29725394 0.13352108
-0.013928312 0.3022338 -0.29314876 -0.056632 0.11416163 -0.011707668 0.2524438 0.11325695
0.13897774 0.18216382 0.31173536 -0.025015341 -0.0742283 -0.27379513 0.0065225083 0.31368765
0.19989614 0.0951683 0.25700295 0.08889915 0.1676585 0.03973343 -0.43910202 0.29329142
0.098949194 0.027513226 0.025506344 0.009446658 0.0035521775 -0.1572354 0.0932917 0.3498021
-0.17611697 -0.1028707 0.056200773 -0.15540259 -0.1288045 0.04657201 -0.12104153 -0.22912441
0.053515825 -0.15550989 0.5096917 0.11072481 -0.061477803 -0.006734781 0.047618568 -0.13911185
0.062628254 -0.06653447 -0.05117315 0.05795935 -0.16547102 0.05663636 -0.21218233 -0.1680897
-0.27725148 -0.31546113 -0.08295807 -0.23886889 0.23512086 -0.051449325 0.2761283 -0.25728333
0.09315221 -0.08259782 0.04934558 0.1381182 -0.092425644 0.22016358 0.057694502 -0.0667139
-0.09479366 -0.16870984 -0.080318995 0.20381351 0.04262826 -0.009366731 -0.14085129 -0.07804286
-0.08382592 0.064851016 0.037855595 -0.05209405 -0.21829522 0.11754181 0.12939477 0.039135974
-0.06710292 -0.042137947 -0.29347894 0.08979914 0.08841437 0.063280605 -0.07383777 -0.16858679
-0.20557414 -0.40670523 -0.28980163 -0.13125417 -0.23034814 0.2400037 0.2699873 -0.18742457
0.095568374 0.069505356 -0.03224717 0.09551001 0.010334392 -0.046896618 -0.10483715 0.3688302
0.13811934 0.24664468 0.23421447 0.138339 0.20192882 0.13367166 0.19923642 -0.09486111

0.bias f4 [64]
00000000: 181c 9dbc 7a6f 6a3e f6dc 2fbd 4167 1e3d
00000010: 8b08 cabd a963 28bd d492 cebd 78bc a03a
00000020: 8c6d 7bbd 4244 8abd 9671 a6bd e396 87bc
00000030: e890 3a3d 9b01 a2bc c0f9 c23c 1186 643c
00000040: 4ead e43e 499a 2fbe 8602 653c 41bf 41be
00000050: e47f 09be 217e d33d 9f3e 253b 2bfd 47bd
00000060: 6e70 57be 2ca5 243e 5d2c 8f3d a9b8 523c
00000070: 05a6 ca3d b7e6 883d 1cf6 dfbc 7cd6 b0ba
00000080: b8d6 3abc 8f68 92bc 2508 213b f1f9 acbd
00000090: aa84 ce3c e032 29bd 3b8b a3bd 91bf 5d3c
000000a0: ca74 0d3c d692 27be 4c56 1bbc 8376 5b3e
000000b0: f282 093e e452 913c 0412 3bbd ed28 21be
000000c0: 6713 8f3d d223 b8bd 7c76 5a3e 3873 91bc
000000d0: 6a66 16bd 1721 283e 3884 22be 8889 d9bd
000000e0: 440b 16be cfbb 1c3e bfc1 59bc 2110 51bd
000000f0: 8691 983d 2237 953c 4588 e83c 6d77 4f3d
-0.019178435 0.22894087 -0.042935334 0.03867269 -0.09864911 -0.04111067 -0.10086599 0.0012263199
-0.06138377 -0.067513004 -0.081271335 -0.01655144 0.04554835 -0.019776156 0.02380073 0.01394798
0.4466347 -0.17148699 0.013977652 -0.18920614 -0.13427693 0.103267916 0.0025214327 -0.048825424
-0.21038982 0.16078633 0.069908835 0.012861409 0.09894947 0.0668463 -0.027339034 -0.0013491656
-0.011403732 -0.017872123 0.0024571505 -0.0844611 0.025209744 -0.041308284 -0.079855405 0.0135344425
0.008633802 -0.16364607 -0.009481024 0.21431927 0.13428858 0.01773972 -0.045671478 -0.15738268
0.069861226 -0.08991207 0.2133426 -0.017755136 -0.036718763 0.16418873 -0.1587075 -0.10621935
-0.14652735 0.15306018 -0.013290822 -0.051040772 0.074496314 0.018214766 0.02838529 0.050651003

2.weight f4 [64, 64]
00000000: fdec b33d 07f7 dd3d ffcf 61bd 13ea a33d
00000010: 98da 83bc 4d43 803d ed83 8ebd d661 d4bb
00000020: ce7b 2f3e daf3 47be 22cb dbbc e6be 74bd
00000030: bf9f 153e 71c3 f23d 4bf1 1d3e ab94 153d
00000040: 3a62 98bc 434f 913d d16d 41bd d85d 9a3e
00000050: 25c2 9c3d c60f a1bd 1143 3d3d 38ba b43d
00000060: 4abf c7bc ebd6 4d3e 0301 a6bd 31cb 1c3e
00000070: 8848 81bc fa9e 99bd 559e 693d 887e 84bd
00000080: d3b4 c03d 9ed8 c7bd 20c6 5e3e c589 a5bd
00000090: e4d7 61bc 93e1 e83d a9db 16be c756 ed3d
000000a0: ba55 88bd 956a 0bbe 6314 90bc ad5e 6ebe
000000b0: ed3b 07be fe6b 053e e174 d73d c638 1c3d
000000c0: d54c 143e d39e 90bd 3f6a 57bd c465 18be
000000d0: ee07 acbc 13ea c23d 0694 23bd babe 103c
000000e0: f201 503c 1ab8 e8bd 8e9b 1fbc 860d d93d
000000f0: aada d7bd d650 cb3d 8c36 863d f0e1 bd3b
00000100: 17e8 20be 4ecf 023e c5ac 943e 332b 4e3d
00000110: dbef a83e fe71 2ebe 1227 acbd 321e 09bd
00000120: 786d bfbe 8829 adbd 6cb9 623e 8b8f 9cbd
00000130: 709b 87bd a551 253e 63c7 9a3c f6aa 033f
00000140: 58c6 adbd 0b00 0bbd 927f ab3e 1924 73bb
00000150: 8c30 f83d 64b0 373e f80b 893e c47e 88be
00000160: c3bd 8a3c 043b 13bd cae8 a13d 3ddc 19bd
00000170: 0587 61bd f330 0c3e 78e3 9f3c 5bc1 993d
00000180: d6e9 173e 20b7 64be 55c6 37be 089b b3bd
00000190: 9030 483e 09ce 07be cf0e 1abe 1993 d6bc
000001a0: 47ab 0c3d dd46 163e a17b d83d dab2 453e
000001b0: ae30 443e 113f ab3d 42e2 0a3e 4d80 3abe
000001c0: 2523 933c 72ee 0d3e 500d ccbd 1ee6 0cbe
000001d0: c619 c8bd 443b e8bc 16e7 a9bd c480 b93c
000001e0: 623e 803e afa0 d23d 8d1b 7e3d 00df 48bd
000001f0: 509c 973e bde7 98bd 55b5 e3bc 3a20 4ebe
00000200: a05a 093e 65f4 0d3d 0629 353d bece 863d
00000210: ac26 0fbe fe5d 0c3e 8d13 ed3d 8ec1 1a3c
00000220: 7e71 cc3d adce 8e3c 2e5e ad3c fda1 133b
00000230: b362 4e3d 3c18 133e b4c2 183d 9664 72be
00000240: 4a11 a93c ad70 973d c601 c03b 7f1c 2a3e
00000250: 1b6f 0dbe c6b1 e9bd e93c 28be 500c 3f3d
00000260: 7fec 9dbe 267e 9f3d cd66 78be 519b a83e
00000270: 80ba 813d 786b 1abe 5f45 43be 8b16 5bbd
00000280: 3eb4 d9bd 76ff 443b 4392 553e 74ee 433e
00000290: 3070 66be 7c55 703e 7d85 18bd 13ff f53d
000002a0: af63 403e b399 58bd ed42 46bd 3fd3 f5bb
000002b0: 505a 26be e040 853c 0d68 b8bd 7a11 063f
000002c0: c267 9e3c 17e0 df3d 197a ad3d 3a39 0b3d
000002d0: 3165 433d 68a2 a93b 474d e13d ab48 3c3e
000002e0: 9099 56be e3a6 8c3d 0686 ab3c 9734 a6bd
000002f0: 918e e9be 55f0 1d3d 3a08 953c 7aae 22b9
00000300: eb88 0fbd e579 ed3e 81be 36be 7dd5 cb3d
00000310: a7db 0a3e 8fee 58bd 3683 88bd 6e4d 33be
00000320: d4f3 213d 2e22 aebd e871 e63d cfae 113e
00000330: da29 273d 69a9 c03d a5d3 77bd 2887 013e
00000340: f710 c63e 3f63 79be 8455 183d eea2 da3c
00000350: 81be 7dbe 17a6 f83d 39d7 5abe 0ad8 02bd
00000360: e529 82be a091 3c3d 4966 b83d 5639 20bd
00000370: 10ba 263e 6cf9 45bd 6f20 f6bd dcd8 0dbe
00000380: 03d9 8dbe b0f5 c0bd 9fe6 26bd a368 3cbe
00000390: 1030 88be 7099 103e fcb8 423c 2ad1 34bd
000003a0: a82f 1a3d afb6 22bd fe79 533d 9c9a a83d
000003b0: a5a3 7d3e 0b2e 05be 3ff5 0b3e a9ad fabd
000003c0: 0b62 953d 5752 46be 35ca ae3d 6a19 603d
000003d0: 0d74 f53d 7abf 233e 7116 a93d 75ba dcbd
000003e0: 9beb d6bd 4ec0 ae3e 6cdb b43d c2ae f7bd
000003f0: cc22 b43c e025 1f3d 94ed dd3d 6e26 41bd
0.08785436 0.10838132 -0.05513 0.080036305 -0.016095445 0.062628366 -0.069587566 -0.0064813895
0.17137071 -0.19526616 -0.02683026 -0.059752367 0.1461172 0.11853684 0.15424077 0.036518734
-0.018601526 0.07095196 -0.04722387 0.30149722 0.07654218 -0.07864337 0.046206538 0.08824581
-0.024383206 0.20101516 -0.08105662 0.15311886 -0.015781656 -0.075010255 0.057035763 -0.064694464
0.094094895 -0.09758113 0.21755266 -0.08082918 -0.0137843825 0.1137115 -0.14732231 0.11588817
-0.06656976 -0.13614877 -0.017587846 -0.23278303 -0.13206454 0.13029477 0.1052034 0.03814008
0.14482434 -0.07061543 -0.05259156 -0.1488257 -0.020999875 0.09517302 -0.039936088 0.008834535
0.012695776 -0.113632396 -0.009741677 0.105982825 -0.10539754 0.099275276 0.06553373 0.005794756
-0.15713535 0.12774393 0.29038063 0.050334167 0.32995495 -0.17035672 -0.084058896 -0.033476062
-0.37388206 -0.08455187 0.22141045 -0.07644566 -0.06621444 0.16144426 0.018893903 0.5143274
-0.08485097 -0.033935588 0.33495766 -0.0037100373 0.121186346 0.17938381 0.26766944 -0.26659214
0.016936189 -0.035944954 0.07905729 -0.03756355 -0.055060405 0.13690548 0.019517645 0.07507583
0.14835295 -0.22335482 -0.17946751 -0.08769804 0.19549775 -0.1326219 -0.15044712 -0.026193189
0.03434303 0.1467547 0.10570455 0.19306508 0.19159195 0.08361638 0.13562873 -0.18213005
0.017961094 0.13860491 -0.09963477 -0.13759658 -0.09770541 -0.028348573 -0.08296029 0.022644408
0.25047594 0.10284554 0.062037993 -0.049040794 0.29611444 -0.074660756 -0.027796427 -0.20129481
0.13413477 0.0346569 0.044228576 0.06582402 -0.13979596 0.1370773 0.11575995 0.009445561
0.099825844 0.017432535 0.021163072 0.0022526972 0.050387096 0.14364713 0.03729506 -0.23671183
0.020638127 0.07394538 0.0058595864 0.16612433 -0.13811915 -0.11410861 -0.16429485 0.0466426
-0.30844495 0.07787733 -0.24257965 0.32930997 0.063344 -0.15080059 -0.19069432 -0.053488296
-0.106300816 0.0030059493 0.20856576 0.19133931 -0.22503734 0.2347011 -0.03723668 0.12011542
0.18788026 -0.052880954 -0.04840367 -0.007501989 -0.16245389 0.016266286 -0.09004221 0.5237042
0.019336585 0.109314136 0.08470554 0.033990122 0.047703926 0.005176831 0.110010676 0.18387096
-0.20957017 0.068677686 0.02093793 -0.081154995 -0.45616582 0.038559277 0.0181924 -0.00015514522
-0.035042685 0.4638206 -0.17846109 0.09952829 0.13560353 -0.052961882 -0.066656515 -0.17510006
0.039539173 -0.08502613 0.11252195 0.1422684 0.040811397 0.094073124 -0.060504574 0.12649214
0.38684818 -0.24354266 0.03719093 0.026689019 -0.24779703 0.12141054 -0.21371163 -0.031944312
-0.25422588 0.046037316 0.09003884 -0.03911718 0.16281915 -0.04833357 -0.12017905 -0.13852257
-0.2770463 -0.09421861 -0.04074728 -0.1839929 -0.2659917 0.14121032 0.011884924 -0.044144787
0.037643105 -0.039725002 0.051630013 0.082326144 0.24769457 -0.13005845 0.13667773 -0.12240154
0.07294091 -0.19367348 0.08534662 0.054711737 0.119850256 0.15991011 0.082562335 -0.10777751
-0.10494157 0.34131092 0.08830914 -0.12093879 0.021989249 0.03885448 0.1083633 -0.04715579

2.bias f4 [64]
00000000: 9d50 773c 0f70 95bd 451b c93d 21d7 3c3e
00000010: 382e dabd 06f0 99bd 867c d83d b502 a4bd
00000020: 5bb8 923e e449 183e 5686 083e 1d47 8b3d
00000030: 00ea 3f3c 252d a0bd b384 00bd a247 bcbd
00000040: 3177 f6bd 5043 5ebc f717 80bd d641 19be
00000050: b2db 19be d4c0 85be 1d0d 2f3e 4604 ed3d
00000060: 9a8c 08bd 7dad 10be dd96 033e 1cb5 bebc
00000070: 84ed 5abe ae8c 223e b7b5 0d3e 5ff4 113e
00000080: 85ac 2f3d 326c af3d 86a9 3fbd 6074 393d
00000090: 4fc2 203e 10b4 b0bd 3833 f93d e741 54be
000000a0: 06df f83c a735 703d 6df0 9e3d 182a 1a3e
000000b0: dd83 d53b a4cf 7ebd c0fd ebbd 7906 2c3e
000000c0: e1ab dd3d 0e30 24bd ca0c 693c 47cd d4bd
000000d0: 255d e33d 8b9c 81bd 18f2 603e 8968 e23d
000000e0: b130 603d d625 93bc 7fdb c8bc 725f 0b3a
000000f0: 9a75 2f3d b1ee e33d 3ded 64be b651 2ebd
0.015094903 -0.07296764 0.098196544 0.1844144 -0.10653347 -0.07516484 0.10570626 -0.08008329
0.28656277 0.14871937 0.13332495 0.06800673 0.011713505 -0.07821111 -0.03137655 -0.091933504
-0.12034453 -0.013565853 -0.06254571 -0.1496652 -0.15025213 -0.2612368 0.17094846 0.11573081
-0.033337213 -0.1412868 0.12850519 -0.023279719 -0.21379668 0.15873978 0.1383885 0.14253376
0.042889137 0.085655585 -0.04679253 0.045277 0.15699123 -0.08628094 0.12167972 -0.20728265
0.030379783 0.058644917 0.07760701 0.1505512 0.0065159635 -0.06220974 -0.11523008 0.16799344
0.10823799 -0.04008489 0.014224241 -0.10390716 0.1110175 -0.06328686 0.21967351 0.11055095
0.054733936 -0.017962378 -0.024518726 0.00053166517 0.042836763 0.11129511 -0.22356124 -0.042558394

4.weight f4 [4, 64]
00000000: 213f 27bc 4bbd 02bd ef95 a4bd 40ec 0bbd
00000010: e149 223e 003c adbd 0dc4 2abe ce9a 93bd
00000020: fbd0 51bd b80f 26bd 74fe f7bd 0e35 383e
00000030: 9665 b3bd e6f2 c23d 6bf0 00be 3178 aebd
00000040: af42 e3bd 21b0 573e c79c ca3d 15d9 483e
00000050: 771d a6bc c0e4 d43d 43a4 d63d ccb0 debc
00000060: e490 ebbd d589 98be 5875 babd f694 f5bd
00000070: 7a64 0fbe 0a4c f23c e39a 96bd b107 f6bc
00000080: bb0d d4bd 965d 8bbd 3a97 22be f0c4 393e
00000090: eecd 133d af69 d7bd 76e5 04bd a859 4dbe
000000a0: 3918 4abe 97df 503e e21b 703d 2af1 253d
000000b0: 69f2 863d 8567 e9bd 7525 31be 0de9 21bd
000000c0: 606f 1d3d 9510 1dbe 2ddf 10be cfad 333e
000000d0: d4ca ccbc 2583 623e 3921 8fbd ced6 383e
000000e0: 41db 85be 852b 2e3e 483b c8bd ba32 5c3e
000000f0: 1b52 39bc a4ea 493e 74cc e0ba ade9 96be
00000100: fdfa 723d 1705 2ebe 669f 933e 989c 213e
00000110: 49d2 783d 0e74 2d3e e1db e33d 66f9 a7bd
00000120: 1c13 4b3e 4c4b fd3d 7127 f5bc d133 52be
00000130: 2759 fa39 9f49 eb3d cad8 b9bc 86f0 7f3e
00000140: 6c1d 9e3d 43cf 10bd 6bbb adbe 5698 ce3d
00000150: 1ece 853d 67e4 c3bd 3214 54be e43d d23d
00000160: 6600 373e 0c47 65bc 091a 13bd a3b3 abbd
00000170: ba66 c8bc 50a3 25bd 9597 64bd b717 0b3e
00000180: cefe 5abe fd50 edbd a341 a13b 4697 753e
00000190: 1687 e8bd 640e 2cbe 36b6 2a3e 5696 963d
000001a0: 4ff6 84bc e6df 23be 0211 80be 832b cdbd
000001b0: b430 66bd ae9f 6f3e 780b 1c3e befb 793d
000001c0: afb0 0a3e 71ce 163e aad0 073e 7e28 ed3d
000001d0: 120b 27be cf1c 083e 3f83 e5bd 54f9 95bd
000001e0: 6bcf 12be 0960 47be 26a1 5f3e 942c fabc
000001f0: 0986 b1bd 5a9a 96bd 12d4 453e 4cc9 d0bd
00000200: d3b6 6f3d 7f3e 113e 0393 2bbd cc64 ed3c
00000210: d5d0 b1bd 1f99 22bd 4f97 54bd c6c3 bb3d
00000220: 4001 2abc 4646 8b3d af33 043e ffa3 d73d
00000230: f6eb 04bb 67b6 10be 5ebc afbc aebb 8c3c
00000240: eec5 05be 0cf6 ecbd 4ef3 f7bc 7822 73bd
00000250: 5bd5 f6bd a63d d93d e5ca 153e 950d 8cbc
00000260: 2731 54bd a3fb 803d b870 8f3e 2465 b7bd
00000270: dcdd 793d 73f3 6e3d 04fa 5d3e 3151 86bd
00000280: 5586 1c3e 18cf 783e 4a9f 333e 1d1e a13c
00000290: 5bc3 aebd 6de9 003e b2d6 213e cabb 2dbe
000002a0: 89be ff3d 9768 093e c229 01bc e9e1 7e3e
000002b0: 7820 98bd 4a1e d53d f5c2 f5bd f1d6 593d
000002c0: ae46 113e 5f6f 053d 3d2e e8bd a4d0 9abc
000002d0: 2d5f ae3e 0eea ccbd f1f8 813c b3ff 0f3e
000002e0: 10e1 803c 7dda e83d 2bf8 2f3c c982 edbc
000002f0: 8e30 61bd f1be 073d 20cf a4be 4218 05bd
00000300: e33b 813c cd0c 4ebd 6d8d 1b3e e365 33be
00000310: 073b 1f3e fed2 c13d 14c9 fa3d 873c 69bd
00000320: 4e31 4fbe 0c56 82be 8190 02be d12e f5bc
00000330: 7c89 0bbe 57b2 0fbe 6eb0 5fbe c03f a63d
00000340: ec70 9f3d cc32 853d 9681 64bd 3a2b 6a3e
00000350: 1203 4fbe df13 9e3e 7112 e33c 27b3 62be
00000360: de9e 2d3e 62ee 0ebe 3208 223e 638e edbd
00000370: 9163 f83c c52e d9bd cc3c 513d 4092 56be
00000380: 06ea 6d3d 46f9 263e 5e11 d2bc 904e 053e
00000390: 9e70 143d c33c 013e fd33 8b3d 6c51 a63d
000003a0: 18e7 f4bc 6b08 cc3d be94 20be aa76 d33d
000003b0: 1b14 063e 5353 423e 74ac 1bbe 68ab c7bd
000003c0: b3bc 90be 7d26 e4bc 69c3 4dbd 2453 f43d
000003d0: 7458 733e db17 8a3e 92c4 83be 0b0b fd3b
000003e0: 0227 5dbe 7aa1 063d 6849 083e 7ecc 423e
000003f0: e1f2 f73d c77f cfbd 1309 4bbd 63c5 37be
-0.010207922 -0.031918805 -0.0803641 -0.034160852 0.15848495 -0.0845871 -0.1667635 -0.07207261
-0.05122469 -0.040542334 -0.1210908 0.17988989 -0.0875961 0.095189855 -0.12591712 -0.085190184
-0.11096703 0.21063282 0.09893184 0.1961406 -0.020277722 0.10395193 0.10480549 -0.027183913
-0.11502245 -0.29792657 -0.09104413 -0.11991303 -0.14003173 0.029577274 -0.07353761 -0.030032964
-0.103541814 -0.068049595 -0.15878001 0.18141532 0.03608506 -0.105182044 -0.032445394 -0.20053732
-0.19735803 0.20397793 0.05862034 0.040513195 0.06589205 -0.11396698 -0.17299445 -0.039528895
0.038436294 -0.15338357 -0.14147635 0.17546771 -0.02499906 0.2212034 -0.069887586 0.18050691
-0.2614384 0.17008789 -0.09776932 0.21503726 -0.011311079 0.19718415 -0.0017150776 -0.29475155
0.059321392 -0.16994129 0.2883255 0.15782392 0.06074742 0.16938803 0.11125923 -0.08201866
0.19831508 0.12367877 -0.029926034 -0.20527579 0.0004775014 0.114886515 -0.02268638 0.24994096
0.077204555 -0.03535391 -0.3393205 0.100876495 0.06533454 -0.09565049 -0.20710829 0.10265711
0.17871246 -0.01399399 -0.0359135 -0.08383872 -0.024463046 -0.04043895 -0.055808622 0.13583265
-0.21386263 -0.11587713 0.0049211546 0.23983487 -0.113538906 -0.16802365 0.1667107 0.07352893
-0.01623073 -0.16003379 -0.25012976 -0.10018065 -0.05619879 0.23400757 0.1523875 0.061031096
0.13543962 0.14727189 0.13263193 0.11579989 -0.16312817 0.1329224 -0.11206674 -0.07322946
-0.14336936 -0.19470228 0.21838817 -0.030538835 -0.08668143 -0.07353659 0.1931918 -0.10194644
0.058523964 0.14183997 -0.04188825 0.028978728 -0.0868241 -0.03969681 -0.05190211 0.091682
-0.010376275 0.06800513 0.1291034 0.10529327 -0.0020282245 -0.14132081 -0.021452125 0.017179336
-0.13063785 -0.11570367 -0.030267384 -0.059359044 -0.12052413 0.10607462 0.1462818 -0.01709632
-0.051804688 0.06297996 0.28015685 -0.08954838 0.061002597 0.05833764 0.21677405 -0.06558455
0.15285619 0.2429775 0.17541233 0.01966768 -0.08533355 0.12589045 0.15804556 -0.16966167
0.124875136 0.13418804 -0.007883491 0.24890865 -0.07428068 0.10406168 -0.12000076 0.0531835
0.14187118 0.032576915 -0.11336944 -0.018898316 0.34056988 -0.1000558 0.015865775 0.14062385
0.015732318 0.11369798 0.01074032 -0.028993027 -0.054977946 0.03314108 -0.32189274 -0.032493837
0.015775627 -0.050305177 0.15190668 -0.17519335 0.15549861 0.09464072 0.12245384 -0.05694249
-0.20233652 -0.25456274 -0.12750436 -0.02992955 -0.13626665 -0.14032875 -0.21844646 0.08117628
0.0778521 0.06503829 -0.055787645 0.22868052 -0.20216015 0.30874535 0.027718754 -0.22138654
0.16955134 -0.13958123 0.15823439 -0.11599424 0.030320914 -0.10604624 0.05108337 -0.20954227
0.05808451 0.16306028 -0.025643047 0.1301825 0.036240213 0.12620835 0.06797025 0.08120999
-0.02989535 0.09962543 -0.1568174 0.10325368 0.13093607 0.18977098 -0.15202504 -0.0974949
-0.28268966 -0.027850384 -0.050235186 0.1192992 0.23764211 0.26971325 -0.2573591 0.0077222637
-0.21596912 0.03286884 0.13309252 0.1902332 0.12106872 -0.101317935 -0.0495692 -0.17946391

4.bias f4 [4]
00000000: 7eb1 d63d bb7a 0a3e e153 773e 6145 423d
0.10483073 0.1352338 0.24153091 0.047429446
