TLCS/models/model_58/trained_actor_model.pt (torch, 40695 bytes, 6 tensors)

0.weight f4 [64, 80]
000000 2c b4 b6 3e f1 a1 7f 3e 37 32 1f 3e de d7 5f 3e
       0.35684335 0.2496412 0.15546499 0.2185969
000010 cf 59 2d 3e de c2 8f bc d9 7f 83 3e d9 16 c4 3e
       0.1692879 -0.017548975 0.25683478 0.3829868
000020 28 a9 c4 bc 86 d4 03 be 5c 1a 6a be 39 c6 43 be
       -0.024006441 -0.1287404 -0.22861618 -0.19118585
000030 71 74 05 be 90 b3 31 3b 19 0d dd 3d 88 af d0 3e
       -0.130327 0.0027115084 0.10793514 0.4075892
000040 31 de ea 3d 05 5f 01 be 0f 84 05 3e 15 ef e6 bd
       0.11468161 -0.12633903 0.13038658 -0.1127607
000050 cd c6 9a bc ed 8a 08 3e 86 ef 71 3e be b6 7e bc
       -0.018893624 0.13334246 0.23626527 -0.015546499
000060 fb 75 a7 3e fc 5f 33 3e ff dd cc bd 17 92 a5 3d
       0.327072 0.17517084 -0.1000328 0.08084505
000070 ea 9f d9 3c 90 81 2c be 2b d8 be be 08 b4 a6 be
       0.02656551 -0.16846299 -0.37274298 -0.32559228
000080 a1 8f e0 bc 90 ee 73 3d be 13 f9 bd f6 15 36 be
       -0.027412238 0.059553683 -0.12161969 -0.17781815
000090 32 bb 29 be 57 20 9b bd ed ef e6 3d 32 e1 aa bd
       -0.16575316 -0.07574528 0.11276231 -0.08343734
0000a0 4c ad 2a 3e 10 c9 64 bd 86 08 5c 3e a6 89 c6 bc
       0.1666767 -0.05585581 0.21487626 -0.024235558
0000b0 24 eb 3c 3d 5c 2d 4e be fe e2 89 3e 5e e4 1e be
       0.046122685 -0.2013449 0.26930994 -0.15516803
0000c0 73 e1 80 bd c0 2a f9 bd 91 38 86 be 4a f6 0b bd
       -0.06293001 -0.12166357 -0.26215032 -0.034170426
0000d0 2e 39 c9 3d a3 6d 43 be f3 62 6c bd af fb 9a bd
       0.09825359 -0.19084792 -0.057711553 -0.07567536
0000e0 dd 3c 8b 3d ca 3b b8 3d 14 9f c7 3d fc 9f 64 be
       0.06798718 0.08995779 0.097471386 -0.22326654
0000f0 3b 73 15 be 6f 40 8b 3e 43 69 e8 3d 6e 82 bd 3d
       -0.14594738 0.27197596 0.11348202 0.09253393
000100 66 2a 68 be 5c 8b 87 be 93 01 2b be d9 ef 8a bd
       -0.22672424 -0.2647351 -0.1669982 -0.067840286
000110 e6 1c 00 be 31 f9 8a bd c1 91 60 be 88 26 1e be
       -0.12511024 -0.06785811 -0.219306 -0.15444386
000120 8b 9f 1d be a7 51 c4 bd f5 71 82 3d 7a 1c a1 3e
       -0.15392892 -0.095858864 0.06369392 0.31467038
000130 0a 3f 96 3e 63 ed d1 3e 00 37 02 3e 01 9e 0a bd
       0.2934497 0.41001424 0.12716293 -0.03384209
000140 38 9a 5d 3c 3b cf ef 3b fd 64 c2 bd 07 7b 08 be
       0.013525538 0.007318405 -0.09491918 -0.13328181
000150 ae 08 b8 bc 86 ae 8a bb bd 3d 07 3d b1 57 34 3f
       -0.022465076 -0.0042322306 0.033017863 0.70446306
000160 ba ce 2e be 0d 6b 32 be 4d d8 12 3e 8c 19 37 3e
       -0.17071047 -0.17423649 0.14340325 0.17880839
000170 49 79 86 be f4 60 1f 3e e5 de 74 bd 3a 85 b3 3e
       -0.26264408 0.15564328 -0.05978288 0.3506258
000180 b3 1e de 3c a6 bc 15 be c0 cf da bd 86 d9 0c be
       0.027114248 -0.14622745 -0.106841564 -0.13754854
000190 44 26 c3 be ea dd f1 bb f1 77 64 3d 2f a0 12 3b
       -0.38115132 -0.0073811905 0.055778448 0.002237331
0001a0 48 22 75 be 8d 52 bc bd b8 19 22 be 9d 3a d1 bd
       -0.23938859 -0.09195433 -0.15830123 -0.10216258
0001b0 19 4a 8b 3d 14 39 98 bd b4 11 2a 3c 50 ae a7 be
       0.068012424 -0.07432762 0.010380197 -0.32750177
0001c0 a9 b1 df bd aa 09 da 3a 94 c2 eb bd 83 98 3f bc
       -0.10922558 0.001663496 -0.11511722 -0.0116940765
0001d0 eb 95 61 be 93 c7 a3 3e c2 0a 15 be e6 48 8a bc
       -0.22029845 0.319882 -0.14554885 -0.016880464
0001e0 05 aa 35 3e cd 98 7b be 90 a1 a7 3e 98 b6 a9 3e
       0.17740639 -0.24570008 0.3274045 0.3314712
0001f0 72 ed ec 3e cd 69 08 3e ee a4 92 3d 5e d5 ad 3d
       0.46274906 0.1332161 0.07160364 0.08487962
000200 c1 1c d2 bc 77 db a9 3c dd f7 d9 3d c6 49 f1 3d
       -0.025648477 0.020734532 0.10642979 0.11781649
000210 49 16 44 bc b8 40 80 3e 77 ec 39 be 5b 4f 83 3e
       -0.011968204 0.25049376 -0.1815661 0.2564648
000220 8e b5 33 be 53 cd c5 3e ef ec 24 be 3b 54 22 be
       -0.17549726 0.38633212 -0.16106008 -0.15852444
000230 88 26 ae be c6 66 a1 be 84 6e c2 3c b1 9e 76 3b
       -0.34013772 -0.31523722 0.023734339 0.0037631209
000240 7b ea ba bd e8 c4 b3 bd c1 2b 0c bd 08 a6 9b 3e
       -0.09126755 -0.08777791 -0.034221414 0.3040011
000250 63 35 d0 3d 67 46 02 be a2 b4 9e be 75 0c e7 3d
       0.10166433 -0.12722169 -0.30997187 0.11281673
000260 ad 22 45 be 46 e7 25 be 0d 31 19 be dc 78 c0 bd
       -0.19251509 -0.16201505 -0.14960118 -0.09398052
000270 9e f6 47 3e 0f 2f 56 3e 83 71 0e 3e bb 53 a1 be
       0.1952767 0.20916389 0.13910489 -0.31509194
000280 a8 49 d5 bc 1f e7 bf bd 24 22 07 3e cf 30 9e 3e
       -0.026036099 -0.09370255 0.13196617 0.30896613
000290 15 2a 9e bc e6 64 84 3e 8e ab 74 3d 79 af ba 3d
       -0.019307176 0.2585823 0.05973392 0.091155
0002a0 00 18 28 3d 99 26 de 3d 46 46 86 3e a0 a1 70 3d
       0.041038513 0.10847206 0.2622549 0.058747888
0002b0 5c b3 c0 3e a6 74 10 be 3f ce b5 3d bd fc 01 3f
       0.3763684 -0.14106998 0.08877229 0.50776273
0002c0 0b 42 38 bd f0 09 6c bb 84 24 29 be b9 af f9 bd
       -0.04498486 -0.0036016665 -0.16517836 -0.121917196
0002d0 c2 f9 4c 3e 68 5c 64 3e c0 5f 8b 3e cc 35 04 3e
       0.2001715 0.22300875 0.2722149 0.12911147
0002e0 b7 70 8f 3e 97 79 a4 3e 1e 5f 4b bd f7 ed fa bd
       0.28015682 0.32124016 -0.049651258 -0.122524194
0002f0 c3 79 b9 bd f6 b2 a1 be bf f4 98 be 20 a3 6b be
       -0.09056427 -0.3158185 -0.29874226 -0.23011446
000300 94 9d e3 bd a1 17 0e 3e b0 76 04 3e 85 80 0d be
       -0.1111404 0.13876201 0.129359 -0.13818558
000310 3e 38 a5 3e b7 48 7f 3c f6 6c 97 3d d7 33 70 3e
       0.32269472 0.015581301 0.073938295 0.23457275
000320 8b 55 8c be 34 84 b8 bd 00 fd 5d be 57 5e f2 3d
       -0.27409014 -0.09009591 -0.21678543 0.118344
000330 7a c4 33 3e 42 22 31 be d4 33 b0 3d 11 7f f1 3e
       0.17555419 -0.17298225 0.086036354 0.47167256
000340 a1 12 54 bd b0 7c 35 be 7c 0b 82 bd ff 4f be 3d
       -0.05177558 -0.17723346 -0.06349847 0.09292602
000350 75 b5 71 3e 97 9a 5f bd 25 4c ab bd a1 dc 39 3e
       0.23604377 -0.054590788 -0.08364133 0.1815057
000360 36 95 b5 3e e7 91 1d 3c 55 11 ab bc 7c 16 60 be
       0.354654 0.009617305 -0.020882288 -0.21883577
000370 97 0b 9d bd 78 96 0a 3e ed ca 84 3e 62 27 33 bd
       -0.07668226 0.13533962 0.2593607 -0.04373873
000380 a1 12 b3 bd 20 bc 3f bd e2 38 ea 3d 55 7b 8f be
       -0.087437876 -0.04681027 0.11436631 -0.28023782
000390 97 6a 2b be a2 25 06 3e d4 0c f4 be 5a 85 5f be
       -0.1673988 0.13100293 -0.47666037 -0.21828213
0003a0 31 04 08 be ac e9 e0 bd 39 40 47 3d a7 8a 16 3e
       -0.13282849 -0.109820694 0.048645232 0.14701329
0003b0 28 a8 78 bc c8 78 ec 3e 91 18 3f be 34 d0 cb bd
       -0.01517681 0.461859 -0.18661715 -0.09951821
0003c0 a5 16 91 3e 43 c6 04 3e c7 bd 21 3e 4e 0e f1 3d
       0.2833759 0.12966256 0.1579505 0.117703065
0003d0 f6 58 0c 3c 5c 8c 94 be 95 e4 b8 3d f9 04 82 3e
       0.008566132 -0.29013336 0.090279736 0.2539442
0003e0 72 e0 64 3d bb 12 39 bd c8 b6 7e be cb e2 52 be
       0.05587811 -0.04518388 -0.24874413 -0.20594327
0003f0 16 b9 87 be e2 1c d9 3d 1f fb cc bd b3 aa aa 3e
       -0.26508397 0.10601212 -0.10008835 0.33333358

0.bias f4 [64]
000000 6c 11 34 3d ea 5a a0 bd bc be 94 bd 7c 0e 86 bc
       0.043961927 -0.078298405 -0.07262942 -0.016364329
000010 ab 5f 0f 3e 5d 65 5d be 87 64 31 3e f7 28 5c be
       0.14001338 -0.21620698 0.17323504 -0.21500002
000020 86 6c 09 3d 81 54 9e 3d 41 f9 f1 3d 4e 0c d0 3d
       0.03355076 0.077309616 0.118151195 0.10158597
000030 b3 d4 fe 3d 70 b6 d1 3d fc bb 1c 3e 36 c1 39 3e
       0.12442913 0.10239875 0.15306085 0.1814011
000040 56 85 9d bd ea c2 e9 3d dd c0 8e 3c 7d 1b 59 3e
       -0.076914474 0.1141413 0.017425949 0.21201892
000050 41 35 60 be 7e a7 98 bd 9f d9 12 3e c3 86 dc 3d
       -0.21895315 -0.074538216 0.14340828 0.10767891
000060 34 e5 82 bd 71 3c 2a 3e a7 29 19 3e 97 fe 29 3e
       -0.06391373 0.16624619 0.14957295 0.16601025
000070 02 f5 fc bd ce 04 12 be 35 86 ae bd 22 22 91 bc
       -0.12351419 -0.14259645 -0.08521692 -0.017716471
000080 bc d3 87 3d 32 8c 8b 3e 97 d3 4b 3e d0 8e 10 3e
       0.06632182 0.27255398 0.19904934 0.14116979
000090 10 cd 50 be 14 4a 2e 3d 6c 71 e8 3d 68 68 16 be
       -0.20390725 0.042551115 0.113497585 -0.14688265
0000a0 45 95 34 bd 83 61 75 bd e8 b8 80 3c 70 2d 2c 3e
       -0.044087667 -0.059907448 0.01571317 0.16814208
0000b0 bd 83 3e be 99 77 9e 3d 9c bb 30 be bb 45 81 3d
       -0.18604942 0.07737655 -0.17259067 0.06312128
0000c0 f1 83 b1 bc a3 91 1c be 34 1d 81 3e 8d 67 44 be
       -0.02166936 -0.15289931 0.25217593 -0.19180126
0000d0 4a d3 30 bd 98 80 90 3d da 28 51 3e a7 9e 0c bd
       -0.04317025 0.07055777 0.2042574 -0.03433099
0000e0 d9 af 27 3d ba 50 73 3c 9a 15 d4 3d 03 35 ba 3d
       0.040939186 0.01485079 0.10355683 0.090921424
0000f0 17 68 c9 bd ea 08 10 bd 3e e5 b7 bd 66 22 be 3d
       -0.09834307 -0.03516475 -0.08979271 0.09283905

2.weight f4 [64, 64]
000000 cd 83 9d be 06 79 8c 3e eb 89 d1 be a8 75 c7 bd
       -0.3076462 0.27436084 -0.40925536 -0.09739238
000010 f9 0f c8 3c c6 36 39 be ec 14 89 3e 30 86 04 be
       0.024421679 -0.180873 0.26773775 -0.12941813
000020 cf 16 fb 3d e3 95 88 3e bb 10 7c 3d de f0 a0 3d
       0.1226021 0.26676854 0.061539393 0.07858442
000030 7a 3b 00 3e bb 08 92 bc 00 5d 8e 3e fc 07 49 3e
       0.12522689 -0.017826429 0.27805328 0.19631952
000040 79 62 0c 3d 50 fa ac 3e fb f0 48 be a5 e0 86 3e
       0.0342736 0.33784723 -0.19623177 0.26343265
000050 a8 48 a7 be d4 92 ce bd d9 fd eb 3d ae 18 ef 3d
       -0.3267262 -0.10086599 0.11523027 0.11674629
000060 02 3b 06 be 26 ff 9c 3e ec 42 a5 3e c6 07 8e 3e
       -0.13108447 0.30663413 0.3227762 0.27740306
000070 b8 a7 21 3e 8a 9c 0b bd f1 21 d4 bd e4 2b 39 3e
       0.15786636 -0.034084834 -0.10358036 0.18083149
000080 c0 ce 02 3d ef b7 c5 3e 63 28 67 3d ea bf 80 bc
       0.031935453 0.38616893 0.056435 -0.015716512
000090 2c 71 45 be 1e 5a 85 bd 07 61 b8 3e e5 f6 0e 3e
       -0.19281453 -0.06511329 0.36011526 0.1396137
0000a0 9a f9 ef 3b af 72 a9 bb bc 22 1f be ff 6f 0f 3e
       0.007323456 -0.005171142 -0.15540594 0.14007567
0000b0 1d db da be ac 02 df bd 95 5a 6a be bd d3 be bd
       -0.42745295 -0.108891815 -0.22886117 -0.093177296
0000c0 e5 53 ff bd 3f 77 17 be af e8 13 3e fd ee 53 3e
       -0.124671735 -0.14791583 0.1444423 0.20696636
0000d0 b9 4a 14 be 34 fd 12 3e ca fe a4 bd 4e 43 65 bc
       -0.1448163 0.14354402 -0.0805641 -0.0139930975
0000e0 0d 5f 93 bc 25 0a d4 3d b3 65 9d 3e 76 80 97 3d
       -0.01798966 0.103534974 0.30741653 0.07397549
0000f0 db 6e 0d be fc e7 42 3d 63 a3 ee 3d 01 a7 10 3e
       -0.1381182 0.04758452 0.11652257 0.14126207
000100 69 53 b5 be c8 6b 99 bd bd 19 ea bd b7 75 8b bd
       -0.354152 -0.07491261 -0.114306904 -0.06809562
000110 8e 6c 84 be 19 96 0d 3e 84 9e 6e bd 18 e7 dd 3d
       -0.2586407 0.13826789 -0.05825664 0.10835093
000120 2d a6 a8 bc 33 49 15 3e a7 e0 25 3e 3f 8b d3 be
       -0.020587051 0.14578705 0.1619898 -0.41317174
000130 97 9a e4 3d 46 ba db 3c f8 5a d5 3d 82 34 3a be
       0.11162298 0.02682222 0.104177415 -0.18184093
000140 a4 15 63 3e 3a 50 b5 3d 54 7b ea bd 4b b9 d8 be
       0.22176224 0.088531926 -0.11449304 -0.42328867
000150 d8 a8 5a bc 17 5d 36 3d 71 dc d3 bc 5d 24 80 3e
       -0.01334592 0.04452237 -0.02586195 0.25027743
000160 b6 04 c4 3d 65 20 8d be 76 72 0b bf 93 39 72 3d
       0.09571211 -0.27563778 -0.5447153 0.05913694
000170 c2 cd f1 bd e7 6f cd bd 22 a7 f6 3e 40 f2 c7 bc
       -0.11806823 -0.10031109 0.48174387 -0.024407506
000180 a2 ab 06 bd d7 ad 32 3e 86 44 dd bd 9a c2 1e 3e
       -0.032878526 0.17449127 -0.108040854 0.15503922
000190 79 dc 09 3e f8 b5 2b bd 28 26 d3 be b2 76 92 3e
       0.1346301 -0.041921586 -0.41240048 0.28606182
0001a0 3e b4 1f 3e db 46 c2 be b6 80 66 3d a1 0b ad 3d
       0.155961 -0.37944683 0.056275092 0.08449484
0001b0 16 80 20 bd 99 74 dd 3e 74 92 b1 3e 86 6d 85 be
       -0.039184652 0.4325302 0.34682047 -0.26060122
0001c0 9a 4c 06 be 07 e9 ee 3a f1 9c 18 be c9 f5 a1 3d
       -0.13115159 0.0018227407 -0.14903618 0.07908208
0001d0 73 fe a5 3a 9a 7c 9f 3d 31 27 09 be 62 41 eb bd
       0.0012664333 0.07787438 -0.13393857 -0.1148708
0001e0 0b 4d 83 be f6 d1 7a be 34 69 0e 3d b3 c0 37 3e
       -0.25644717 -0.24494156 0.0347683 0.17944603
0001f0 c8 ce 5e be a3 a9 63 3e 39 ac eb 3c b1 43 8e 3e
       -0.21758568 0.2223268 0.028768646 0.2778602
000200 77 16 a8 bb c6 25 ee 3b 54 14 fa be 47 93 35 3c
       -0.005129631 0.0072676865 -0.48843634 0.011082477
000210 55 37 85 3e 5e a8 02 bf 5e b9 32 3c 23 fd 9f 3d
       0.26018777 -0.5103816 0.010908453 0.07811954
000220 22 cb e1 3c 96 5e df 3d 5a a6 c4 bc 6a 83 a8 3e
       0.027562682 0.10906713 -0.024005104 0.3291276
000230 27 94 0f 3e df 37 91 3e d1 2f a4 3c 60 95 36 3e
       0.1402136 0.2836294 0.020042332 0.1783042
000240 4c d4 64 bd bb 76 cf 3d f3 d3 17 3c ab 4c a8 3e
       -0.055866525 0.10130068 0.009266841 0.32870993
000250 37 96 1f be a6 c4 fe 3c 2d 42 0b 3e 62 27 ac bd
       -0.15584646 0.031099629 0.13599463 -0.08405949
000260 97 34 ba be ad 08 1c 3f 68 84 9a 3e 5b eb 46 3d
       -0.36368248 0.6095074 0.30179143 0.048564296
000270 f5 f0 1b 3e 56 bc b4 bd 3d af f4 be 67 9c 8d 3d
       0.15228637 -0.08824985 -0.47789946 0.06914597
000280 5b 66 5b bd db 36 ff 3d 55 43 b7 3d f6 2d 73 3e
       -0.05356441 0.12461635 0.089483894 0.23748001
000290 16 2f c0 be 4c d7 0f 3d 76 de b5 3e b4 f2 75 be
       -0.37535924 0.035117432 0.35521287 -0.24018365
0002a0 16 91 dc 3c 49 b1 6e 3e fd fa 30 bd 0e 1a d4 3d
       0.026924651 0.23309816 -0.04320811 0.10356532
0002b0 e2 fa 60 be 3c cb 13 be 05 d3 60 be fe fe f6 3d
       -0.21970704 -0.14432997 -0.21955498 0.12060355
0002c0 90 88 dc bd ce 70 0f be 78 d0 2a 3e 16 be 81 bc
       -0.10768235 -0.14007875 0.16681087 -0.01583771
0002d0 5b 98 7f be dc 87 58 3d 9e 37 d9 3e 83 c3 d0 bc
       -0.24960463 0.05286394 0.42425245 -0.025483852
0002e0 95 f9 55 3e b6 e8 31 3e 56 e3 cd 3e a3 0d 1e 3d
       0.20895989 0.17373928 0.40212506 0.038587224
0002f0 8c 8b 1a 3e 3f 84 e4 bd 41 fb 8c 3d 74 49 86 bd
       0.15092295 -0.111580364 0.068838604 -0.06556979
000300 0a f6 9b bd f9 8c ad 3d 76 07 88 be 28 2c 67 3d
       -0.076152876 0.08474154 -0.26568192 0.056438595
000310 e2 3a 3f 3d 5d 40 6f be ba c6 1c 3e ce ce e2 3d
       0.046687014 -0.23364396 0.15310183 0.11074601
000320 1b 47 56 3e 92 d9 b9 3e 18 53 82 3d d5 3e 52 3e
       0.20925562 0.36298805 0.06363505 0.20531781
000330 21 3c d1 3e 0d 5f 48 3e 23 09 1f bd a6 44 c3 3e
       0.40866187 0.19567509 -0.038827073 0.38138312
000340 fa 4d 3b be c4 26 fb bb 67 e9 ee bd c1 ff 8d 3e
       -0.18291464 -0.0076645333 -0.11665612 0.27734187
000350 56 31 ca be e6 0c f0 bc 20 92 01 3e ac 08 9b be
       -0.39490765 -0.029303025 0.12653399 -0.30280054
000360 31 f8 11 be 31 2f c3 3e b8 0e 9c 3e bb 38 8d be
       -0.14254834 0.38121942 0.3047998 -0.27582344
000370 23 8b 2d 3e 0c 01 e9 3d e7 d3 a6 be 9d 96 0f be
       0.16947608 0.11377153 -0.32583544 -0.14022298
000380 82 61 c4 3d 2a 10 c4 3d b9 80 c2 bc dc 0d 13 bc
       0.09588911 0.095733956 -0.02374302 -0.008975472
000390 36 dc 5c bf 93 03 94 3d 13 70 2a 3e dd d4 80 be
       -0.86273515 0.07227244 0.16644315 -0.25162402
0003a0 be 8f 4b 3d 81 ac d5 3d d3 cf 58 be ce ad 43 3e
       0.04969763 0.10433293 -0.21173029 0.1910927
0003b0 43 9f 91 bd 27 68 0a 3e 61 2b 01 be be 65 16 3d
       -0.07110455 0.13516293 -0.12614204 0.036718123
0003c0 07 3c 99 be 2b 0d 68 bc b7 bf 3f be f5 63 97 3c
       -0.2992861 -0.014163296 -0.18725477 0.01848028
0003d0 e3 69 b0 be 26 8b 37 3d 9f 2e 59 3e 3a a0 3c be
       -0.34455785 0.044810437 0.21209191 -0.18420497
0003e0 1c 97 a6 3e 65 9b d8 3e 64 86 f9 3c d9 6d 42 3e
       0.32537162 0.42306057 0.03045959 0.18987216
0003f0 ea ec fe bc 53 bf 94 bc 8a 36 ba 3d 08 07 9d bc
       -0.031118829 -0.018157637 0.09092434 -0.019168392

2.bias f4 [64]
000000 6c 62 74 bd f9 6d b4 3d 33 9b 9b 3d 53 68 89 3e
       -0.059664175 0.08810038 0.07597961 0.26837406
000010 66 47 77 3d 88 02 2f 3d d7 69 a6 bd 97 91 cd bd
       0.060370825 0.042727023 -0.08125656 -0.10037535
000020 a8 aa f5 bd b2 bd d1 3d 98 8e 4b bd 39 43 8f bd
       -0.11995441 0.1024126 -0.049696535 -0.069952436
000030 b6 88 80 be ce 00 b9 3b 28 48 96 bc 09 f0 57 be
       -0.25104302 0.005645848 -0.018344954 -0.2108766
000040 0f 26 6a 3d 64 d3 df 3d 84 e4 0f bd d7 37 4a 3e
       0.0571652 0.109289914 -0.03513004 0.19747864
000050 4b 4a 1a be 0d 5e 89 bd 23 e6 4a 3d a2 19 31 3e
       -0.15067403 -0.06707392 0.04953588 0.17294934
000060 f7 07 20 bd 58 c5 ab 3d 2e 84 14 bd ac df 04 3e
       -0.039070096 0.0838725 -0.03625887 0.12975949
000070 0e 4d a1 be c0 e1 da bc 51 f1 ed bd 42 01 fe bc
       -0.315041 -0.026718974 -0.11618293 -0.03100646
000080 5c 92 23 be 16 9b 37 3e 73 25 1b 3d 11 b7 db bd
       -0.159738 0.17930254 0.03787751 -0.107282765
000090 dc d4 9c bd 62 29 75 be cf c1 17 be 16 90 07 be
       -0.07657787 -0.23941568 -0.14820026 -0.13238558
0000a0 bf a6 63 3e 67 91 2c bd 76 3f 10 3e 69 26 62 3e
       0.22231577 -0.042130854 0.14086708 0.22084965
0000b0 87 b5 ae bc 31 20 bd bd e1 69 d1 3c 7e 82 ef bd
       -0.021326793 -0.09234656 0.025563182 -0.11694811
0000c0 78 d7 03 3c 16 c8 a5 3c 85 4b 44 3d 35 d7 18 3e
       0.008046977 0.02023701 0.047923584 0.14925845
0000d0 c6 d6 80 3d 27 5d c9 bd 7a 03 10 3e 64 bc a1 3e
       0.06290965 -0.098322205 0.14063826 0.31589043
0000e0 d4 d8 77 bd db b3 ca bd 08 b2 8b be 78 f0 03 3d
       -0.060509518 -0.09897586 -0.27284265 0.03221175
0000f0 7b dc 64 3b b7 7b 3b 3d 37 11 6e 3c 03 fc 14 3e
       0.0034921456 0.04577228 0.0145304715 0.1454926

4.weight f4 [4, 64]
000000 c0 c9 0a bf b0 cb 18 be 5a d4 26 be 3e c6 28 bd
       -0.54214096 -0.1492145 -0.16291943 -0.041204683
000010 df 6c f6 3d c5 20 89 be c2 a7 9a 3e 1e 33 28 be
       0.12032484 -0.26782814 0.30206114 -0.1642575
000020 d8 0f 81 3e 39 89 6f be a2 38 48 3e 4a 4b f8 3e
       0.252074 -0.2339219 0.19552854 0.4849494
000030 82 55 b2 3e ff cf 2c 3e aa 83 f6 3c cf fb e9 3e
       0.34830862 0.16876219 0.03009208 0.45699927
000040 83 50 7f be f8 3e 90 be ea 73 ac be 27 f3 02 be
       -0.24933057 -0.2817304 -0.33682185 -0.12788068
000050 0c a5 4f 3e ec fc 6e 3e 39 a2 77 3c ab 98 56 be
       0.20277804 0.2333867 0.0151143605 -0.20956676
000060 df 39 7f 3e a7 32 95 be 43 ee ff 3d 6b eb 3b be
       0.2492442 -0.29140207 0.12496617 -0.18351524
000070 aa 0b b3 3e 8e fa 44 3e 07 a1 3d be 26 b2 9f 3e
       0.34969836 0.19236204 -0.18518458 0.31190604
000080 1a c2 19 3f 16 a1 c7 bd d2 80 24 be 25 7b 0c 3e
       0.600618 -0.097475216 -0.16064766 0.13718851
000090 83 a9 48 3e a8 0b 43 3f 53 49 51 3e b4 c1 d2 3c
       0.19595914 0.7618966 0.20438127 0.02572713
0000a0 97 91 b9 be ec 65 cf 3d 76 e9 1a be 19 f7 36 3e
       -0.3624389 0.10126862 -0.15128121 0.17867698
0000b0 59 3a b1 be 67 d6 dc 3d 5e 89 c7 3c 0f 6a ce bd
       -0.34614828 0.107830815 0.024357494 -0.10078823
0000c0 e9 4d 21 be 86 06 ca bd e4 6b 0a bf 91 e7 5c be
       -0.15752377 -0.098645255 -0.5407088 -0.2157271
0000d0 93 7e ef 3d 21 a5 a4 3e da 47 ec bc a0 f9 2a bf
       0.11694064 0.32157233 -0.028842855 -0.6678715
0000e0 4c db a7 be b2 27 56 3e e9 73 46 3f 6b 12 de 3d
       -0.32784498 0.2091358 0.77520615 0.10843357
0000f0 16 11 d2 be f1 83 5d bc 66 6c d1 bc c1 1e 8b be
       -0.4102866 -0.013520227 -0.025564384 -0.271719
000100 2b de 4b 3e 9c 75 0c 3e 45 ea 7b 3e 98 ea 68 3e
       0.19908969 0.1371674 0.24601085 0.2274574
000110 89 4f ae 3e 00 9e 39 be f5 bf 21 bd 82 7b 99 3d
       0.34045056 -0.18126678 -0.039489705 0.0749426
000120 97 1b 0c 3e 72 96 5d be 12 4f 85 be c6 2b 90 be
       0.136824 -0.21639422 -0.26036888 -0.28158396
000130 94 77 69 be 3f ac 1e 3e 3f e5 b8 3c 54 e2 dc bd
       -0.22799522 0.15495394 0.02257025 -0.10785356
000140 dd 1a a1 be 9a fc af 3e ac 16 55 3c f1 9c 0d 3e
       -0.31465808 0.34372407 0.013005894 0.138294
000150 47 d1 1b 3e ae db a7 be b8 78 bc bc 80 8c 1d be
       0.15216552 -0.3278479 -0.023006782 -0.15385628
000160 eb d8 06 be ee 51 23 be bf 02 2d be 0d 21 47 be
       -0.13168685 -0.15949222 -0.16895579 -0.19446202
000170 e2 9e c7 bd 0c b3 d6 bd 85 1d 19 3e a6 cd 9b 3e
       -0.09747101 -0.10483369 0.14952667 0.30430335
000180 1e 3e 22 be 04 02 95 bd 1f d5 17 be 18 fd 2d 3e
       -0.15844008 -0.07275775 -0.14827393 0.16991079
000190 4d 8a c2 3d 92 24 08 be ea b3 57 be 95 09 ba be
       0.09499035 -0.132952 -0.21064726 -0.36335436
0001a0 85 f5 22 3e c7 ba 2e 3e 0d de 8e 3e 66 6e 4f be
       0.15913971 0.17063437 0.27903786 -0.20256957
0001b0 7f 90 0f 3e 89 39 dd be b8 6a a6 3e ee f2 b5 be
       0.14019965 -0.43207958 0.32503295 -0.35536903
0001c0 9d 1e b4 3e de 18 8f be 0d af a7 3d ba 05 f9 3d
       0.35179606 -0.2794866 0.08187685 0.121592954
0001d0 f0 97 0a 3d ac d5 cd bd f9 0e 81 be 90 89 22 3e
       0.033836305 -0.1005052 -0.25206736 0.15872788
0001e0 e7 ce 15 3e 51 73 90 3e 16 19 37 be 5e 00 83 3c
       0.14629708 0.2821298 -0.17880663 0.015991386
0001f0 82 6b f1 3d 87 b7 20 bd 06 e6 e2 3c e9 92 99 be
       0.117880836 -0.039237525 0.027697574 -0.29994896
000200 86 90 62 3e 3b 73 a5 be 41 6e 2c 3e 5e e6 39 3d
       0.22125444 -0.32314476 0.16838934 0.04538571
000210 ab a7 1e bd 02 f5 80 3e 6d 4e 91 be 4a 99 0b be
       -0.03873412 0.25186926 -0.28380147 -0.13632694
000220 07 42 9b be a7 84 6d 3e 99 75 ec 3d 4a e5 df bb
       -0.30323812 0.23195134 0.115458675 -0.0068327533
000230 51 97 0a be dc 2e 31 be 1a 14 95 3e 6a 9f 8d be
       -0.13534285 -0.17303032 0.291169 -0.27660686
000240 36 78 ab 3e d1 62 06 3e 68 3b e6 3d 75 44 7b be
       0.3349015 0.13123633 0.112417996 -0.24537833
000250 19 2d 1c be 13 f0 03 be 79 71 af be 65 31 99 3d
       -0.15251578 -0.1288455 -0.3426626 0.074801244
000260 63 02 9a 3e df 72 a5 3e ec 68 c0 bd a7 2a 5b 3e
       0.30079946 0.32314202 -0.09395012 0.2140299
000270 be 86 6d bd 3b 02 3f 3e 4f ef 35 be b3 3b 96 be
       -0.05798983 0.18653195 -0.1776707 -0.29342422
000280 e7 03 92 bd 40 9b 8e 3e 41 e1 85 3c 11 c7 07 bf
       -0.071296506 0.2785282 0.016342761 -0.53038126
000290 3e 26 8a be 06 3b c3 bd 8f c8 fb bd 1f df 88 bd
       -0.269823 -0.09532742 -0.12294113 -0.06683182
0002a0 c1 62 de 3d 15 86 ac be 6f 01 6b 3e 24 3a 4c 3e
       0.108586796 -0.33696046 0.22949766 0.19944054
0002b0 21 3d ec 3d 49 18 36 3c e5 18 b3 bb b5 a2 1a 3d
       0.11535097 0.0111141885 -0.005465614 0.037752826
0002c0 82 a4 85 3d ba 5e be 3e d3 6d 5c 3e cb 4d ea 3d
       0.06525518 0.37181646 0.2152627 0.11440619
0002d0 e4 c1 fa bd 36 25 3e be 7e 44 84 3d 4e 18 7a 3e
       -0.12244013 -0.18568882 0.06458376 0.24423334
0002e0 26 ba 98 3e ab af cc be 96 58 35 be d8 df 85 3e
       0.2982952 -0.39977774 -0.17709574 0.26147342
0002f0 ad 23 67 3e cf 39 69 3e 9a 44 5b 3e 07 c2 4f 3e
       0.22572203 0.22775958 0.21412888 0.2028886
000300 4b 2b 57 be b1 21 4b 3e 68 d0 a7 be 61 3f b8 be
       -0.21012609 0.19837071 -0.3277619 -0.35985854
000310 18 a4 87 be 25 b4 9c 3d 9c 8f 8f 3e 7e b9 ff bb
       -0.2649238 0.07651547 0.28039253 -0.007804095
000320 34 52 5c 3d ed aa 29 3e 53 d9 93 be c2 f4 5f bc
       0.053789333 0.1656911 -0.28876743 -0.013669195
000330 d1 b9 31 3d 1c 14 41 be 1c 29 0d 3e 4b 31 16 3e
       0.0433901 -0.18855327 0.13785213 0.14667241
000340 fb aa 63 3c 78 0c 90 be 55 f0 24 be bc a9 ae 3e
       0.013895745 -0.28134513 -0.16107304 0.34113872
000350 e7 fe f1 bd b7 a0 bb 3e 67 0f 81 3e c3 67 bd 3d
       -0.11816197 0.36646053 0.25207064 0.092483066
000360 88 ce 4d be ae ce 4d 3e a8 dd 82 3e 2d 77 2e 3d
       -0.20098317 0.20098373 0.25559735 0.042594124
000370 5e 74 87 3c 2a 3c c9 be db 49 cf 3e 3d 74 04 3d
       0.01653498 -0.39303714 0.40486035 0.032337416
000380 89 c3 bb bd 18 92 00 3e 14 55 8a 3e a5 e0 71 bd
       -0.09168155 0.1255573 0.27018034 -0.05905213
000390 44 7e 0f be cd e4 2f 3d 39 86 b7 3e e2 29 a9 3e
       -0.1401301 0.04294281 0.3584459 0.33039767
0003a0 cc 7b b4 3c eb 68 5a 3d 72 ca e1 be 08 31 af bd
       0.022031687 0.053322714 -0.44099766 -0.08554274
0003b0 fd 96 b9 be 51 b6 94 3e 53 4d 6f be 4f 59 ae 3e
       -0.36248007 0.29045346 -0.2336934 0.34052512
0003c0 48 b8 a0 be 61 60 97 be b5 36 da bd 48 20 10 be
       -0.31390595 -0.2956572 -0.10654966 -0.14074814
0003d0 17 2b 2b 3e 4d f4 d2 3e fc 71 b7 3d c8 ec 05 3e
       0.16715656 0.41202012 0.08957288 0.13078606
0003e0 59 7b 9f be a2 d2 93 bd ee 7f 0d be af 24 a1 be
       -0.31148794 -0.072179094 -0.13818333 -0.314733
0003f0 31 8c a4 be b1 fb cb be cf 0b 93 be 5b 4e 33 3e
       -0.32138208 -0.39840463 -0.28719947 0.17510359

4.bias f4 [4]
000000 97 5f 25 3e 7b 80 52 3d 0d 6e 3b bd dc 31 0e be
       0.16149746 0.05139206 -0.04575925 -0.13886207
