TLCS/models/model_56/trained_actor_model.pt (torch, 40695 bytes, 6 tensors)

0.weight f4 [64, 80]
000000 01 04 a9 be 1f 23 0b 3e 9b 9d 37 be 53 70 d5 be
       -0.33010867 0.13587616 -0.17931215 -0.4168726
000010 55 70 98 be 39 0d 7f 3d a3 28 4f 3e 13 c4 58 3d
       -0.29773203 0.06226847 0.20230345 0.052921366
000020 35 85 f8 3b 6b 03 0f bd 3d bb 5f 3e 8e f9 46 3d
       0.007584239 -0.03491537 0.2184877 0.048577838
000030 1c e3 95 3e 84 d2 3c 3e d9 0b 76 3e a8 9f 18 3e
       0.29274833 0.1843968 0.24027957 0.14904654
000040 bf ff 84 3d f0 95 84 3a 59 27 21 3e 7f 11 1c bf
       0.06494092 0.0010115486 0.15737666 -0.60964197
000050 19 c5 d5 bc d2 ea 44 bd b7 eb 33 3e 0e 97 94 3c
       -0.02609496 -0.048075505 0.17570387 0.018138435
000060 0a 97 77 bd 99 dc e7 be 99 52 5f be cc 1d 89 bd
       -0.060446776 -0.4528549 -0.21808852 -0.066951364
000070 8b 34 8f 3e e0 0c 80 3e 18 a8 93 3d 2b e6 85 3c
       0.27969775 0.25009823 0.07209796 0.016345104
000080 63 b5 b0 3c 15 5a 22 3e 20 1a b9 bd 63 15 1a be
       0.021570867 0.15854676 -0.09038186 -0.15047221
000090 b2 cb 44 3e 13 b3 a0 3d 99 34 2a be d7 bd 4b be
       0.19218329 0.07846656 -0.16621627 -0.19896637
0000a0 ce 92 03 be 6d 14 68 be a3 b7 94 be 97 36 b4 3d
       -0.1284897 -0.22664042 -0.29046354 0.08799475
0000b0 7d 1d 9e 3e de 15 71 be 6b e3 ba bd 03 cd 92 be
       0.30881873 -0.23543498 -0.09125408 -0.28672037
0000c0 8e 23 8a 3e ed 41 2f 3e fc 8c 71 3e 98 fa a9 3d
       0.2698025 0.17114992 0.23588938 0.0829975
0000d0 72 f2 56 3e 6d 36 ff bc 26 34 82 3e 08 49 47 3e
       0.20990923 -0.031153882 0.2543041 0.19461453
0000e0 64 e0 e0 bd af f7 42 be ad 76 3d 3e ec 1b 99 bd
       -0.10980299 -0.19039796 0.18502302 -0.07476029
0000f0 52 ec fa 3d 3c df 28 3f 05 11 42 3c b3 f8 eb 3c
       0.12252106 0.6596563 0.011844878 0.028805112
000100 e2 0a 9e 3d 3b 09 70 be b6 f0 0b 3f 81 a4 aa 3e
       0.077169195 -0.23441021 0.5466417 0.33328632
000110 29 90 fa bb 6e 02 6d be c6 20 11 be 82 e6 19 bd
       -0.0076465798 -0.23145458 -0.14172658 -0.037573345
000120 01 94 7f bd 5b d1 30 be ae 9b 39 3e 4c 92 39 3d
       -0.062397007 -0.17267363 0.18125793 0.045305535
000130 83 1b 62 3d f0 99 12 3e 54 f5 15 bd aa 60 4a be
       0.05520202 0.14316535 -0.036610916 -0.19763437
000140 60 77 ee bd 20 fc 23 be e7 74 87 be b8 8f 91 be
       -0.11643863 -0.16014147 -0.26456377 -0.2842996
000150 53 b4 0b bf c8 35 d7 bd 19 30 19 be ed bb 59 3b
       -0.5457203 -0.10508305 -0.14959754 0.0033223585
000160 9f 65 04 3e 44 bf df bb b9 7a fa 3d 1d 4c 14 be
       0.1292939 -0.0068282206 0.12230439 -0.1448216
000170 f7 25 22 be 56 a9 1a bd 38 36 44 3c bd 4c 0c 3e
       -0.15834795 -0.037759148 0.011975817 0.13701148
000180 77 77 0e 3e 68 d1 a0 3d 45 0c 5b 3d 39 4e 9e bd
       0.1391276 0.07852441 0.053478498 -0.077297635
000190 a1 e3 7e 3e 07 0b 78 3e e5 2a 82 3e 51 80 3c bd
       0.24891521 0.24222957 0.2542335 -0.04602081
0001a0 63 2e 1d 3d 33 da b4 3b 58 3c e0 3d 85 72 fd bd
       0.038374316 0.0055191754 0.1094901 -0.123753585
0001b0 68 e4 47 3d 73 16 60 3e a2 ba 47 be 91 5f 00 be
       0.04880181 0.21883564 -0.19504789 -0.12536456
0001c0 a1 26 73 bd 98 b4 9f bd 0a 78 22 be d2 76 85 3e
       -0.05936301 -0.077981174 -0.15866104 0.26067215
0001d0 03 2f 7f 3d ab be 12 be 44 d6 12 3c 8b 38 0b 3e
       0.062300693 -0.14330547 0.008962218 0.13595788
0001e0 1a 27 a8 be df 41 29 3d 79 22 a5 be 35 cf 14 bc
       -0.32842332 0.041322585 -0.32252863 -0.009082605
0001f0 dc de ed bc 45 44 58 be 77 87 a5 be 0f 8e 04 3c
       -0.029036932 -0.21119793 -0.32329914 0.00809051
000200 7a f6 6f bd 4e 09 1f be 89 ba 27 3e f4 7e 5d be
       -0.058584668 -0.15530893 0.16379751 -0.2163046
000210 26 35 15 be d8 4b d6 bd 4a 8c de bd 1e a4 77 3e
       -0.14571056 -0.10463685 -0.10866602 0.241837
000220 d1 8a 8c be 6b ca e9 bd 61 4a d7 3e 78 86 90 3e
       -0.2744966 -0.11415561 0.42048934 0.28227592
000230 39 6e b7 3e 86 51 11 3f d6 44 9e 3e 18 76 fe ba
       0.3582628 0.5676502 0.30911893 -0.0019413857
000240 67 d8 33 3e 0a 0f 97 be c3 e2 27 3d 65 8b dd 3d
       0.1756302 -0.2950366 0.04098774 0.10817603
000250 72 b3 61 be 8f 9b 97 be 27 4b 5c be a5 7b 4c be
       -0.22041109 -0.2961087 -0.21513043 -0.19969042
000260 6f 14 11 be 63 d8 72 be 8a 05 9f bd b8 fa 92 bd
       -0.14167951 -0.23715357 -0.07764728 -0.07176727
000270 11 f8 1d 3d fe 99 8b be 8e 04 b7 be ee 57 6b 3e
       0.038566653 -0.27265924 -0.35745662 0.22982761
000280 59 89 ec 3d cf ac 82 3d d8 97 60 bd 21 f1 d6 3d
       0.115496345 0.06380617 -0.05483231 0.104952104
000290 cd a6 51 3d 8f b8 55 bd 3f eb ed bd 2a b2 26 3d
       0.051184464 -0.052177962 -0.11617135 0.040697254
0002a0 57 bc 85 3d ad a4 0e be 0a a8 1d be de 59 95 3c
       0.065300636 -0.13930006 -0.15396133 0.018231329
0002b0 4c 71 b7 3c 18 17 c4 3d d2 6d f0 bc c0 d4 e4 bc
       0.022392891 0.09574717 -0.029349241 -0.027933478
0002c0 df 70 0d 3e 50 87 49 bd 8c bb 07 be 1f 7f 49 bc
       0.13812588 -0.04920131 -0.13255137 -0.012298374
0002d0 08 88 67 3e 8a c8 c5 3e 83 d3 c0 3e 23 ec 48 bd
       0.22610486 0.38629562 0.3766137 -0.049053323
0002e0 55 6b 73 3d a7 99 97 3e 93 69 75 3d f6 29 87 3e
       0.05942853 0.29609415 0.059915137 0.263992
0002f0 7b 06 d4 bd 21 97 7c bd 5a 84 8c be 52 e6 08 3c
       -0.103527986 -0.061667565 -0.27444726 0.008355694
000300 d4 71 42 bd bb db 45 3d 40 dc a8 bc 2e 92 e4 3e
       -0.047471836 0.048305254 -0.020612836 0.44642776
000310 29 f6 ce bd 66 86 a8 bc 63 43 20 be 6b 92 99 3e
       -0.10105545 -0.020571899 -0.15650706 0.2999452
000320 65 34 7c 3e 63 3d 2d 3c 5f 75 f7 3d 92 bf 8e 3e
       0.24629362 0.010573718 0.12082934 0.27880532
000330 8c 32 2c bc 81 5e e9 3d 33 94 bd bd de f8 98 3d
       -0.010510098 0.11394978 -0.092567824 0.07469343
000340 02 90 9d bd ce 37 04 3d 53 3e 89 3d ab 98 41 3d
       -0.07693483 0.032279782 0.067013405 0.047264736
000350 5a 41 75 be 33 68 c2 3d 8a 0d 92 be f3 54 25 3b
       -0.23950711 0.09492531 -0.28525954 0.0025227636
000360 d3 b3 ab bb 8f ea 87 be 29 9f 94 3e 85 cd ee bd
       -0.0052399426 -0.26546142 0.2902768 -0.116602935
000370 11 7b 9d 3e 87 c2 bf 3b d0 c2 1f 3e 1c fc 00 be
       0.30757955 0.005852047 0.15601659 -0.12596172
000380 09 2e 64 bd 58 91 80 3d 76 f3 35 bf 1d af 16 3f
       -0.055707965 0.06277722 -0.71074617 0.5886095
000390 de 03 0a be a1 0d db bd 98 38 ec bd 88 86 8e be
       -0.13478038 -0.10695959 -0.11534232 -0.27837014
0003a0 ff 99 6c 3e c8 5a f0 bd c7 f4 e3 bd bd 59 8f be
       0.2310562 -0.11736065 -0.11130672 -0.27998152
0003b0 d1 a6 82 be fb 8b 3e bd 16 6c fc bd 1a e3 84 be
       -0.25517896 -0.046520215 -0.12325303 -0.25954515
0003c0 6e d4 8b 3e 55 36 6b 3e 2b c6 de 3e 11 0a 1e 3e
       0.27310508 0.22969945 0.43510565 0.15433528
0003d0 c2 76 1f 3f b2 4a a9 3d 3f 4d 55 3e c2 bd 97 3d
       0.62290585 0.082662 0.20830248 0.0740924
0003e0 3e e8 46 be 27 43 33 3e 24 b9 cf bd f3 10 78 3e
       -0.19424531 0.17506085 -0.10142735 0.24225216
0003f0 66 71 40 3e 64 db e4 bc 35 24 3b 3e e9 ec b5 bb
       0.18793258 -0.027936645 0.1827553 -0.0055519235

0.bias f4 [64]
000000 2e a3 66 3d d8 2f 54 3e cd ba 00 bc 09 1b 2b be
       0.056307964 0.20721376 -0.007857037 -0.16709532
000010 02 31 92 bd 79 1e 84 bc a6 9f 8b 3d 92 3e 06 be
       -0.07138254 -0.016127812 0.0681756 -0.13109806
000020 fc bb db 3d 56 a7 58 3d 71 16 ce bd d4 94 73 bd
       0.107292145 0.05289396 -0.10062874 -0.059468105
000030 1e 2b 77 3d ea ea 04 be b1 0d 89 bd 70 b9 c9 bb
       0.060343854 -0.12980238 -0.066920646 -0.006156139
000040 ed bf 32 bd c8 7a 16 3d a9 76 ef bc 65 c3 c1 bd
       -0.043640066 0.036738187 -0.029231386 -0.09461097
000050 af be 25 3d f8 aa 49 bd 21 81 84 3e 9b 06 0a 3d
       0.040465053 -0.049235314 0.25879768 0.033697706
000060 9a 29 0e bc 96 ba 6a be 3d 5d e2 bd c0 c0 a1 bb
       -0.008676911 -0.2292274 -0.1105294 -0.0049363077
000070 ae 8e 30 be de 55 10 3e 8d b3 6b bc 86 86 8e bd
       -0.17241928 0.14095256 -0.01438607 -0.06959252
000080 e5 87 0f 3d b6 33 44 bc 90 d8 75 3e ff 2b 22 3e
       0.03504171 -0.0119752195 0.24008393 0.15837096
000090 2e f4 fa bd 32 6d cf 3d 15 ed da 3d d7 87 27 be
       -0.12253605 0.10128249 0.10689751 -0.16360413
0000a0 d3 51 f3 3d c7 33 b2 bd 76 c2 13 3e c6 61 59 3e
       0.11880841 -0.08701282 0.1442965 0.21228704
0000b0 87 22 2e bd 9b cc 97 3d 5d 24 5f bd 8b 5e 04 be
       -0.042513397 0.07412072 -0.054478038 -0.1292669
0000c0 2d a7 1b 3c 8a 36 ca 3d 80 84 4d 3d 6f 50 f1 bc
       0.009500307 0.09873684 0.05017519 -0.029457299
0000d0 f3 ce 63 be 9e 01 c2 3d ee b4 da 3c 74 3c 5e bc
       -0.22246914 0.09472965 0.026697602 -0.013564218
0000e0 6b df 75 3d 35 0f 21 3d 5a 0c 1d 3e 8c ee d2 bd
       0.06002752 0.039321143 0.15336743 -0.102994055
0000f0 c5 6f 9e 3c 31 50 78 bc 08 28 1e be 62 04 8b be
       0.019340405 -0.015155838 -0.15444958 -0.2715178

2.weight f4 [64, 64]
000000 57 cf 79 be 39 3e 32 be 07 04 0e 3e 20 7f ee 3d
       -0.243955 -0.17406549 0.13868724 0.11645341
000010 bb f8 af be de 5a 96 bd 2c 53 1b 3e 6f 2b 38 3e
       -0.34369454 -0.0734155 0.15168446 0.17985319
000020 e8 24 32 3c e6 cc 73 bd 7d 84 40 3e 95 ba bb bd
       0.010873057 -0.05952158 0.1880054 -0.09166447
000030 78 c9 c9 3c f8 c2 3e bd 5a 70 48 3e 58 1a 3b be
       0.0246322 -0.046572655 0.19574109 -0.18271768
000040 52 49 ae 3e 23 47 b2 be 78 de 69 be 60 25 82 3e
       0.34040314 -0.34819898 -0.22838771 0.2541914
000050 5f 00 3a be 25 b7 5f 3e 69 78 05 3e cc e3 63 3e
       -0.18164204 0.21847208 0.13034214 0.22254866
000060 2b 73 5e be a1 b2 93 3d c0 a8 3f 3d 78 75 81 bd
       -0.2172362 0.07211805 0.046791792 -0.063212335
000070 b2 ac 1c 3d 72 11 d7 3d 9c c6 98 be 10 d6 d7 bd
       0.038250633 0.10501374 -0.29839027 -0.10538876
000080 ff 4c 4e be 0e 9a 23 3e 98 5d 28 be 08 40 01 be
       -0.20146559 0.15976736 -0.16441953 -0.12622082
000090 1c 02 40 bd d3 86 1b be b7 cd 96 be a8 06 0d be
       -0.04687701 -0.1518815 -0.29453823 -0.1377207
0000a0 d3 47 22 be ef 39 b5 bb df bf a5 be f0 15 40 be
       -0.15847711 -0.005530588 -0.3237295 -0.18758368
0000b0 52 bf 14 3d 84 71 ad be ef c4 a4 3d 9d 2d 5a be
       0.03631527 -0.33875668 0.080453746 -0.21306463
0000c0 6f 4c af be da 9a d1 bc ae ea f0 bd 65 6d 80 bd
       -0.34238002 -0.025586534 -0.117635116 -0.06270865
0000d0 0b 3a 0c be a9 bd 80 3b 43 4e aa 3d 99 20 77 3e
       -0.13694017 0.0039288593 0.083157085 0.24133529
0000e0 0a fd cb bd a3 3b 03 3e 68 e8 f8 3c 99 5c c7 3e
       -0.09960373 0.12815718 0.030384257 0.38937834
0000f0 83 01 16 bd 75 27 cd be e8 41 a9 3e 11 ba 97 3e
       -0.036622535 -0.40069166 0.33058095 0.29634145
000100 5e 5e 6b be 52 4d 31 be 08 7c 9f bc a1 76 ce bc
       -0.22985217 -0.17314652 -0.019468322 -0.025203051
000110 b0 7e 0d be 67 9a f1 bc fa 31 96 3e ff 74 5f 3e
       -0.13817859 -0.02949257 0.29335004 0.21821974
000120 df df a3 bd 6e fd 7c be 2c 83 a9 3d a8 40 91 be
       -0.080016844 -0.24706051 0.08276972 -0.2836964
000130 4b b9 3f bd a9 a0 44 bc 28 e3 d0 bd 79 c1 b9 bd
       -0.04680757 -0.012001195 -0.101995766 -0.09070105
000140 d7 8a 0f 3e 93 a3 14 bc ca 9b ce 3d 8a 1a a2 3e
       0.14017807 -0.009072202 0.10088308 0.31660873
000150 2a a7 95 3e c5 a9 b9 3e c6 10 b5 3b 86 91 fa 3d
       0.292291 0.36262336 0.005525681 0.12234788
000160 1c 52 a2 bd 4f 59 6d 3e f9 0a 05 3e 9b 6b 98 be
       -0.07925817 0.231786 0.12992467 -0.29769596
000170 27 ce cd bd 4c 13 14 bd 4b c0 9b bd 04 c3 c8 bc
       -0.10049086 -0.036151215 -0.07605036 -0.024507053
000180 d9 ec d9 bd 16 05 5b be c9 b9 5f be 65 ab 25 3e
       -0.10640878 -0.21388659 -0.21848215 0.16178663
000190 0d d5 95 3d f7 44 6a 3e 75 47 a6 be 31 e5 33 be
       0.07316027 0.2287787 -0.32476392 -0.17567898
0001a0 7f e1 f7 bd 99 37 55 be 44 49 7d be 5d 57 05 be
       -0.12103557 -0.2082199 -0.2473498 -0.13021608
0001b0 48 bc 52 3e 54 7f da bd 7a a4 10 3e e4 95 93 be
       0.20579636 -0.10668817 0.14125243 -0.28825295
0001c0 2f d5 a9 be c7 ec c3 3d 8b b0 6c be e3 d3 45 be
       -0.3317046 0.09566646 -0.23114221 -0.1931911
0001d0 49 fb e5 bc b5 db 4f be 6b 71 e3 bc 08 b2 d0 3d
       -0.028073924 -0.20298655 -0.027764043 0.10190207
0001e0 63 18 87 3e 0a 8d 95 3d 1b 0e 09 be 1b 11 e2 3c
       0.26385793 0.07302292 -0.13384287 0.027596047
0001f0 2a 61 72 3d 31 9e a8 bd cf 75 c0 3e 3c 20 ac 3d
       0.059174694 -0.082332976 0.3758988 0.08404586
000200 a8 01 20 be 85 d7 1f be c1 99 87 3d 73 57 19 3e
       -0.15625632 -0.15609558 0.06621123 0.14974765
000210 ec dd 24 be 71 35 6a bb ee 30 00 3e 10 c5 3e 3e
       -0.16100281 -0.003573742 0.12518665 0.18629861
000220 8c 85 5d be c3 14 2b bd 09 53 31 3c ac d7 a6 bd
       -0.21632975 -0.041767847 0.01082302 -0.08146605
000230 8b ab 9a 3d dd ae 89 3d 12 21 27 bd cf 79 86 be
       0.075522505 0.06722806 -0.040803023 -0.26264808
000240 f8 4e 22 3e f0 2a 48 bd 98 d1 c1 3c 68 39 5b 3e
       0.15850437 -0.048869073 0.023659512 0.21408617
000250 81 5c 99 bc 7e b9 d2 3e 10 dd 3d 3d fd a6 97 3d
       -0.018720867 0.41157144 0.0463534 0.07404897
000260 ed 1d ad bc d2 17 e0 3d b3 5b 22 3e e5 e9 d7 bc
       -0.021132434 0.10942043 0.15855293 -0.026356647
000270 14 f2 e9 bc d6 2c c2 bd b0 ae 32 be 07 ac 60 be
       -0.028557815 -0.09481208 -0.1744945 -0.21940623
000280 0a 41 9a be 5f 9a f7 bc 65 8e 39 be cf 05 b0 3c
       -0.30127746 -0.030224977 -0.18120725 0.021487145
000290 15 53 ce bc 9d 16 45 3e 11 af 06 bf 3b 1c cd bd
       -0.025186101 0.19246908 -0.5261088 -0.1001515
0002a0 18 51 a9 be 54 7c f1 bb 5f 9e 94 be 77 11 99 be
       -0.33069682 -0.0073695574 -0.29027078 -0.29896137
0002b0 78 fa 91 3e 8c 5f d8 be 1e cb 0f 3e d9 67 98 be
       0.28511405 -0.42260396 0.14042327 -0.2976673
0002c0 d3 4d c9 bd 88 68 02 bb bd f3 0a be 3b 19 6c bd
       -0.09829297 -0.0019898731 -0.13569541 -0.05764125
0002d0 0c 2f 23 be 15 7a 48 be c6 d5 53 bd 05 52 4a bd
       -0.15935916 -0.1957782 -0.051717542 -0.049394626
0002e0 e5 d5 97 bc 30 23 85 3e ad 94 e9 3d f8 23 8b 3d
       -0.01853461 0.26003408 0.11405311 0.0679397
0002f0 e2 70 c6 3d 4f 8c c0 bd fa 3d e4 3e 47 a6 82 3e
       0.096894994 -0.09401762 0.44578534 0.25517485
000300 8b ed ed 3c f9 a6 3b bc 02 b1 0c be 76 1e c9 bd
       0.029043933 -0.011453384 -0.13739398 -0.09820263
000310 7b 54 aa be 1a c0 d5 be f0 57 df 3b 99 13 fa 3e
       -0.33267578 -0.41748124 0.006815903 0.48843077
000320 e6 7c 7c 3e 58 65 c5 bd 21 ba fa bd 31 a3 65 3d
       0.2465702 -0.096384704 -0.122425325 0.056063835
000330 9e 1b cc bd 72 d5 b8 3e f8 d3 ec 3d 7a 23 54 bd
       -0.09966205 0.36100346 0.11563867 -0.051791646
000340 97 df 93 3e 11 d8 f5 3c f8 fb 14 bd 36 ea 19 3d
       0.28881523 0.030010255 -0.03637311 0.037576877
000350 55 7d 34 be d1 0c 01 be b3 f0 1a 3d 4a 15 02 3f
       -0.17625935 -0.12602545 0.037827205 0.50813735
000360 d6 fc 7f be cb ae 8a bd 6b ee 52 be bd 57 2d 3e
       -0.24998793 -0.0677162 -0.20598762 0.16928001
000370 6c cd 42 3e dd d5 c2 3c 2c cd 31 be f4 76 3e 3e
       0.19023675 0.023783619 -0.17363423 0.18600065
000380 a3 8c 6e bd d3 6f 8b 3e e5 49 3c 3e eb 0c ee be
       -0.05823959 0.27233753 0.18387564 -0.4649423
000390 33 58 47 3d 94 f3 92 be cc a3 a0 be 54 7a 7f 3e
       0.048668098 -0.2870146 -0.31374967 0.24949008
0003a0 41 e3 30 bd 1a 92 a3 3d f4 60 12 be 22 b7 fb 3d
       -0.043185476 0.07986851 -0.14294797 0.12290789
0003b0 1d 21 d1 3d 2d 99 29 3e e0 4c 1b 3e cd 67 f8 bd
       0.10211394 0.16562338 0.15166044 -0.121291734
0003c0 f4 27 f3 3d 4b 88 74 bc da df b2 3e 40 f0 8b 3c
       0.11872855 -0.014925073 0.3493641 0.017082334
0003d0 f9 de 22 be 8c 89 1a 3d 83 2c 29 be 4f 38 a3 bd
       -0.1590537 0.03772883 -0.16520886 -0.079697244
0003e0 80 94 d4 bd 49 f3 5c 3d 59 15 a9 3d 6c 45 c3 3e
       -0.103798866 0.053942952 0.08256025 0.38138902
0003f0 c6 ca 37 3e cb d9 30 be 20 51 d0 be 0f 80 6a be
       0.17948446 -0.17270581 -0.40686893 -0.22900413

2.bias f4 [64]
000000 1f d1 84 bd d1 1c cc 3d ce 1b 4d bd c2 be 89 bd
       -0.06485199 0.09966434 -0.050075345 -0.06725837
000010 a6 86 85 3e 8f 28 27 3e 36 a4 6d be b7 97 97 bd
       0.2607929 0.16324066 -0.23207173 -0.07401984
000020 a0 5d 42 bd ab 5e a0 3e 77 b6 16 bd c2 e4 50 be
       -0.04745257 0.31322226 -0.036795106 -0.20399764
000030 d4 7d 38 3e c5 e3 e7 bd 68 ef 2b be 2b 94 8d bd
       0.1801675 -0.113227405 -0.16790545 -0.069130264
000040 6b f3 73 be 2f 8b fc 3c 98 ed fe 3d ba e3 5b 3d
       -0.23823325 0.030828087 0.12447661 0.053683974
000050 6b 26 21 be 12 fe 4a be f6 1b 2e bd 11 ac d2 3d
       -0.15737312 -0.19823483 -0.042507134 0.10286725
000060 d1 4a d3 bd 8f 00 8c 3d 7b cc 23 be 23 34 ca bd
       -0.103170045 0.06836044 -0.15995972 -0.098732255
000070 f1 a8 5e 3e 29 43 30 3e f6 1b 0b 3c 31 86 14 3d
       0.21744134 0.1721312 0.008490553 0.036260787
000080 4c 41 14 3e 0f ed 2d be e7 21 65 3e b5 aa f9 3d
       0.14478034 -0.16984962 0.22376214 0.12190763
000090 3e c9 c3 bd 80 b6 f3 3d 3b 13 83 3d ea f5 d9 bd
       -0.09559868 0.119000435 0.06400152 -0.106426075
0000a0 49 7c 60 be 4a 59 e4 3d be 5e 3d be 08 b4 84 be
       -0.21922411 0.11149843 -0.18493173 -0.25918603
0000b0 ca 49 28 be 90 98 c8 bd 38 f7 0c be e1 67 2a 3e
       -0.16434398 -0.09794724 -0.13766181 0.16641189
0000c0 c8 2f 95 be 8d f1 39 3e d1 41 54 be ad 5f e1 3d
       -0.29138017 0.1815855 -0.20728232 0.11004577
0000d0 74 cb b0 bc 2a 10 64 3d c2 1e 51 be ad fa 91 3e
       -0.021581389 0.055679478 -0.2042189 0.28511563
0000e0 6c 5c 60 bc 21 64 47 3e a3 75 08 be 92 49 1a bd
       -0.01369391 0.1947179 -0.13326125 -0.03766782
0000f0 9c 80 0d be ab 6b 4b be 21 f2 59 be 8d 00 9f 3d
       -0.13818592 -0.19865291 -0.21283771 0.07763777

4.weight f4 [4, 64]
000000 a2 aa 71 be 80 d3 77 be d6 2d ab be 93 f8 0a 3d
       -0.23600248 -0.24201775 -0.33433408 0.033928465
000010 3a eb 2c 3e 77 10 9a 3e d0 a1 80 be 8f 62 75 bd
       0.16886607 0.30090687 -0.25123453 -0.059908446
000020 cd 3d b7 bb 3d a1 c2 3d cf f4 f4 bd 92 9a 1a be
       -0.005592084 0.0950341 -0.11960756 -0.15098026
000030 48 ef df 3d 5c f2 40 be 57 8f 0f be 9e c1 57 be
       0.10934311 -0.18842453 -0.14019524 -0.21069953
000040 1e e8 60 be c5 83 6a be 29 4a 03 3e 20 8e c5 be
       -0.21963546 -0.22901829 0.12821259 -0.38584995
000050 bb 7f 5a be 96 f0 98 3d 58 b6 2a be 9f 43 d2 3d
       -0.21337788 0.07467763 -0.16671121 0.10266804
000060 49 25 bc be 04 d1 67 3e 55 0a 96 be eb b9 44 3e
       -0.36747196 0.22638327 -0.29304758 0.19211547
000070 5d 00 a6 3b 3d 7d 0e bd fc a9 28 3e f8 d7 32 be
       0.0050659613 -0.034787405 0.16471094 -0.17465198
000080 a3 dd 63 3e f5 42 ef bc bf b7 61 3d 7b 91 23 3e
       0.22252516 -0.029206732 0.055106875 0.15973465
000090 e0 7f 44 bd ec b4 09 be eb 13 73 be 25 35 da bd
       -0.047973514 -0.13447922 -0.23738067 -0.10654668
0000a0 7e 6f 8e 3d aa a7 a8 be 67 65 1a be 96 be c0 3e
       0.06954859 -0.32940418 -0.15077744 0.37645406
0000b0 2a b5 2a be c8 d2 8b be 0f 83 14 be 1d be 16 3e
       -0.16670671 -0.2730925 -0.1450312 0.1472096
0000c0 70 6e aa be 17 77 66 3d 68 81 30 be cf 33 0c 3e
       -0.33287382 0.056265917 -0.17236865 0.13691638
0000d0 79 b8 83 be 72 ee 91 3e 24 b3 6e be 01 e8 24 3e
       -0.2572668 0.28502232 -0.23310524 0.16104127
0000e0 fb 55 93 3e ed b0 c2 3c 22 21 0e be 0f 28 bb 3e
       0.28776535 0.023766005 -0.13879827 0.36554
0000f0 c7 8c 2d be 0e 65 6c be 62 e4 82 be 05 65 33 3e
       -0.16948234 -0.23085424 -0.25564867 0.17519005
000100 f6 b9 75 3e 80 82 a9 3d be c1 84 3e ca 65 85 3e
       0.2399672 0.08276844 0.25929064 0.2605422
000110 05 71 c6 bd a2 d2 cf bd c7 96 9c 3e b6 ea 81 bd
       -0.096895255 -0.10147597 0.30583784 -0.06343596
000120 eb 78 a2 3e f9 d8 23 be 39 7b 5d be 88 41 16 3e
       0.31732878 -0.16000737 -0.21629037 0.14673436
000130 b3 37 b8 bd 69 f6 80 3e d1 92 8f 3d 5a c3 45 3e
       -0.08994999 0.25187996 0.07010425 0.19312802
000140 4d 06 c6 3e 73 ae 3e be 5c 4f 45 be aa 4f 27 3c
       0.38676682 -0.18621235 -0.19268554 0.0102118645
000150 30 9d 8a 3e 29 dd 8a be d0 ee 75 3e f3 07 8f bd
       0.2707305 -0.27121857 0.24016881 -0.06983938
000160 43 91 e3 3e b4 4d ae bd 64 79 ab 3c 93 db 3a be
       0.44446763 -0.085109144 0.020931907 -0.18247823
000170 ba c1 2f 3e d7 fd 64 3e ce 1c 96 be 49 a7 36 3e
       0.17163745 0.22362457 -0.2931885 0.17837252
000180 fa 9e 79 be 9a b2 14 3e f6 a1 4e be e9 dc c3 be
       -0.24377051 0.14521256 -0.2017897 -0.3825448
000190 22 7d ef 3d f9 38 69 3d 0d 78 f2 3d 9e 71 8b 3e
       0.11693789 0.0569391 0.11839304 0.2723512
0001a0 64 2e e6 3d e8 2b 91 3d 77 b8 6d 3e a7 92 85 be
       0.11239317 0.070884526 0.23214899 -0.2608845
0001b0 6d 9f dd bc a9 38 8c 3e 88 72 95 3e f2 09 3c be
       -0.02705356 0.27386978 0.29188943 -0.18363169
0001c0 3c 13 c2 3e 62 fc 40 3c b2 20 6e 3e fe 44 c3 bd
       0.379053 0.011778923 0.2325466 -0.095346436
0001d0 f9 b8 81 3d a5 91 88 be 51 ae a9 3e 5e 9e 92 bd
       0.06334109 -0.26673618 0.33140805 -0.071591124
0001e0 33 00 20 be 61 dc 7a be ad bc 42 3e 02 b9 5f be
       -0.15625076 -0.2449813 0.19017287 -0.21847919
0001f0 00 36 10 3e d1 07 09 3e e3 b3 50 3e 99 6b ab be
       0.140831 0.13381888 0.20381121 -0.33480528
000200 c2 fa 56 3d cb 10 c1 3a a1 1b 00 3e a0 0e 18 be
       0.052485235 0.0014729736 0.1251054 -0.14849329
000210 eb 3c 77 bd 4d 06 96 3d dd b6 ba 3d 22 60 1c be
       -0.06036083 0.073254205 0.0911691 -0.15271047
000220 05 12 52 be 57 19 95 3d 59 b0 c6 3d c7 51 23 be
       -0.20514686 0.07280224 0.097016044 -0.15949164
000230 8a e6 12 3e 6c 8f ba 3d dd a6 a4 bd e1 fd d9 3d
       0.14345756 0.09109387 -0.08039639 0.10644127
000240 06 e4 bd bc b4 37 26 3e a5 36 a5 3d 2b 4e 01 3e
       -0.02318002 0.16232187 0.08067063 0.12627475
000250 2d b0 67 3d de ae 8b be 81 ab 71 3e 81 6f 1d 3e
       0.0565645 -0.2728185 0.2360058 0.15374567
000260 78 d9 bd 3d 42 3d 22 3d 99 ba a7 bd 14 1c 73 be
       0.092699945 0.0396092 -0.081898876 -0.2374118
000270 00 99 56 3e 9d 3e 39 3e 35 92 a4 bd db 56 8b 3e
       0.20956802 0.18090291 -0.08035699 0.27214703
000280 29 8c d7 bd e2 34 4f bd 53 0d 5f 3e cc fc 47 3c
       -0.1052478 -0.050587542 0.21782427 0.012206268
000290 44 11 31 be 1e 9b d0 3d f0 5e 2d 3e b9 06 31 be
       -0.17291743 0.10185836 0.16930747 -0.1728772
0002a0 12 2e 9f bd 70 4d 8f 3e 9f d9 0b be 31 db ba bd
       -0.07772459 0.27988768 -0.13657235 -0.09123839
0002b0 88 a3 84 3e ce 77 8f 3d ee 33 f5 3c f8 4b 89 bd
       0.25906014 0.07005273 0.029931989 -0.06703943
0002c0 69 18 8f bd a6 c8 27 3e 45 6e 41 3e 82 50 15 3e
       -0.06987078 0.16385135 0.1888972 0.14581493
0002d0 bf 9f 11 be 86 30 26 bc ec 0f 14 be b3 e0 9b 3e
       -0.14221095 -0.010143405 -0.14459199 0.3044487
0002e0 19 37 17 3d bc 11 24 3c 43 c4 0b be 80 cc 27 be
       0.03691778 0.010013994 -0.13649087 -0.16386604
0002f0 28 ba 2d 3e 3d 08 14 3d 73 ba 31 3c d9 0c 8a 3d
       0.16965544 0.03614067 0.010847676 0.06740732
000300 db ba ad bc 12 b1 45 be f0 9d 8b bd 14 31 6b be
       -0.021207264 -0.19305828 -0.068172336 -0.2296794
000310 17 23 9e 3d 89 ff 20 3d 03 8e 2e 3e 0d 9b 67 3e
       0.077215366 0.039306197 0.1704636 0.22617741
000320 4b 16 49 be 67 9c fc 3c 9f b2 68 3e 67 73 57 3e
       -0.1963741 0.030836297 0.22724389 0.21040116
000330 5e 01 56 be 21 52 34 be ed 6d 34 3b a8 2d 51 bd
       -0.20898959 -0.17609455 0.0027531341 -0.05106893
000340 cc 5f 1b 3e b1 e5 d7 bd 11 01 87 3d 43 7c 26 be
       0.15173262 -0.10541857 0.06592 -0.1625834
000350 f7 a4 f8 bc f4 e6 37 3d bc fd 8e 3c 70 df b1 bd
       -0.030352099 0.04489799 0.017454974 -0.086851954
000360 73 a9 a2 bc 1f 80 4e 3d bd af 11 be 33 ae 23 3e
       -0.01985619 0.050415155 -0.14227195 0.1598442
000370 52 cb e1 bc a1 08 31 be 23 e4 50 bd 7a ea 29 be
       -0.027562771 -0.17288448 -0.050998818 -0.16593352
000380 7e cb 9d 3d 78 a7 5f 3e 29 51 64 be c5 09 2a be
       0.07704829 0.21841228 -0.22296585 -0.1660529
000390 7f e9 9b bd e7 b0 2a be e3 76 98 bc 5b e2 71 bd
       -0.07612895 -0.16669045 -0.018611377 -0.05905376
0003a0 ea a3 9b 3d 25 7d 27 be 8e cd b3 bb 8f 71 57 be
       0.075996235 -0.16356333 -0.0054871505 -0.21039413
0003b0 82 38 0e 3e a8 88 01 be 99 05 50 3e 83 75 1f 3b
       0.13888744 -0.12649786 0.20314635 0.0024331517
0003c0 64 06 17 3e 3e 41 a4 3c fd 78 5c bd 6c 68 90 bd
       0.14748532 0.020050641 -0.05382632 -0.07051167
0003d0 3b 3c 3b 3c 5e 54 81 bd 2b be b5 3e 28 c1 4e be
       0.011427934 -0.0631492 0.3549665 -0.20190871
0003e0 04 57 54 3d 52 0f 04 be 9c 55 13 3e 9b f7 37 3e
       0.051840797 -0.12896469 0.14388126 0.17965548
0003f0 5f 59 48 3d ca ca 33 bd 2a f7 1a 3e ac 74 03 be
       0.048913356 -0.043894567 0.15133348 -0.12837476

4.bias f4 [4]
000000 69 81 4f 3e bb c0 f4 bc 27 2e 3b 3e 1c 89 09 be
       0.2026421 -0.029877057 0.18279324 -0.1343121
