TLCS/models/model_54/trained_actor_model.pt (torch, 40695 bytes, 6 tensors)

0.weight f4 [64, 80]
0.2367404 0.0824534 0.18392469 0.11159368 0.34786236 0.119645014 -0.3324494 -0.17949212
-0.21770418 0.046295594 -0.11719534 0.041826583 -0.049037904 -0.07837938 -0.13005526 -0.022978824
-0.20678896 -0.051867373 -0.05209374 -0.34534475 -0.34680387 -0.33719826 -0.22266091 -0.1380006
-0.2521792 -0.027605677 0.20942466 -0.18668029 0.031842936 -0.17746139 0.13205823 0.21099788
-0.19608887 -0.4356122 0.09852064 0.016570617 -0.13484985 0.0402983 0.13399126 -0.20375198
0.13911648 0.13257188 0.08106418 -0.07427832 0.06196347 -0.12390482 -0.25727582 -0.29172364
0.06489135 -0.23537117 0.19073379 0.021741979 -0.14964087 0.022562876 -0.021821897 -0.1803392
0.015255878 -0.11595118 -0.14250751 -0.124346435 -0.29922992 -0.1435068 0.005521147 -0.44167122
-0.14652868 0.0017714892 0.13578342 0.1119647 -0.27049112 -0.054704905 -0.037896503 0.09342277
-0.30412737 0.18561158 0.3775762 -0.08085862 -0.29356802 -0.0016156405 0.09740662 0.025979778
-0.01724381 -0.030688833 -0.32408524 -0.040218394 -0.27066872 -0.05790289 0.37084305 0.39718702
-0.021565001 -0.06386273 -0.21863969 -0.2339851 0.0046472778 -0.00031186035 0.05399711 0.19492678
0.31296757 -0.06604465 0.043694273 0.160748 0.23715778 0.39204362 0.27824944 0.08241638
0.07493703 0.04121752 0.14774837 0.20209156 -0.07319481 -0.07484579 -0.05409667 -0.16757083
0.010047526 0.17015968 -0.14528982 -0.0578141 0.41143364 -0.09097735 0.04580371 0.26285636
-0.011200866 -0.16980122 0.0046472596 0.12282506 0.17317364 0.03778685 0.5789047 0.18346103
-0.060229007 -0.085142575 -0.13009097 -0.12728739 -0.21451773 -0.01840926 0.015925033 0.2874575
-0.06546322 0.23879868 0.19710237 0.053082988 0.3149893 0.346171 0.30460873 0.26424834
-0.088988274 -0.20291983 0.025461907 -0.064956695 0.01779848 -0.06918341 -0.070385925 0.08678084
0.13282482 -0.028578736 -0.19119371 0.14268367 0.44894174 0.07729268 0.11228737 0.023943417
-0.029079042 0.058386337 0.38844043 0.13408923 0.19419788 0.4111083 -0.3318047 0.0035481171
0.11644685 0.13279933 0.13083081 0.10164018 0.11832485 0.095533185 0.06999634 -0.07673974
0.0028248897 -0.2699633 -0.04354645 -0.16862462 -0.02140089 -0.19010119 -0.21983854 0.11185513
-0.077442795 0.06599782 -0.1942573 -0.24534948 -0.16164665 -0.0805276 0.15362673 0.061492104
-0.15875724 0.030026063 0.07755037 0.04412205 0.13401818 -0.37276727 0.021092495 -0.21842948
-0.09157739 0.09058749 -0.02072055 0.2002263 0.039005686 0.06459913 -0.25193992 0.00351697
0.16081876 -0.26599392 0.24189016 -0.029293288 -0.08372276 0.14945926 0.12465206 0.14658618
0.1689509 -0.1034652 -0.1554276 -0.2312623 -0.09726968 -0.24017948 -0.3226577 0.10133155
0.2869298 0.035042103 0.19453114 0.077553555 0.11813054 -0.054444633 0.11546037 0.35593906
-0.46567145 0.22408985 0.07215028 -0.07608059 -0.109343596 0.23656508 0.31764355 -0.39115
0.2455382 0.52509946 0.22594097 0.11747784 0.30448273 0.4428728 -0.06369583 0.029669212
-0.19729656 0.06463141 0.0009525739 -0.120778635 -0.0076354393 -0.15590376 -0.07687443 -0.019534921
00000000: 136c 723e 54dd a83d c156 3c3e 3a8b e43d
00000010: 041b b23e 7208 f53d cf36 aabe c8cc 37be
00000020: d8ed 5ebe 73a0 3d3d 1c04 f0bd 5a52 2b3d
00000030: f8db 48bd 5e85 a0bd 352d 05be 163e bcbc
00000040: 7cc0 53be e272 54bd 3f60 55bd 07d1 b0be
00000050: 4790 b1be 40a5 acbe 3901 64be 0750 0dbe
00000060: a21d 81be 4d25 e2bc 6b73 563e 1e29 3fbe
00000070: bd6d 023d 70b8 35be 463a 073e d40f 583e
00000080: 85cb 48be 9008 dfbe 30c5 c93d 1abf 873c
00000090: 1416 0abe d50f 253d 0135 093e 5ca4 50be
000000a0: 8d74 0e3e ecc0 073e fa04 a63d 3b1f 98bd
000000b0: 68cd 7d3d cfc1 fdbd a8b9 83be cd5c 95be
000000c0: c2e5 843d 2405 71be b84f 433e 3c1c b23c
000000d0: 753b 19be c8d5 b83c d6c3 b2bc d7aa 38be
000000e0: caf3 793c d077 edbd 7ded 11be 58a9 febd
000000f0: aa34 99be 72f3 12be bdea b43b bb22 e2be
00000100: 9d0b 16be 5031 e83a cf0a 0b3e c04d e53d
00000110: d07d 8abe 4012 60bd 5d39 1bbd 7054 bf3d
00000120: 95b6 9bbe f610 3e3e ab51 c13e 3499 a5bd
00000130: 8c4e 96be e6c3 d3ba 1f7d c73d 8bd3 d43c
00000140: e442 8dbc 2667 fbbc 80ee a5be 0bbc 24bd
00000150: 1795 8abe 952b 6dbd 24df bd3e 195c cb3e
00000160: 16a9 b0bc 77ca 82bd 15e3 5fbe ca99 6fbe
00000170: 3148 983b 3081 a3b9 132c 5d3d e39a 473e
00000180: 493d a03e 6b42 87bd c4f8 323d 209b 243e
00000190: 7dd9 723e f1b9 c83e b676 8e3e ebc9 a83d
000001a0: 9678 993d b4d3 283d 594b 173e 17f1 4e3e
000001b0: 29e7 95bd c048 99bd 7894 5dbd b097 2bbe
000001c0: 619e 243c 573e 2e3e dbc6 14be 7ace 6cbd
000001d0: 6ea7 d23e 5552 babd ac9c 3b3d 1c95 863e
000001e0: d683 37bc 5fe0 2dbe 0a48 983b b48b fb3d
000001f0: 6e54 313e 62c6 1a3d 1933 143f 35dd 3b3e
00000200: b1b2 76bd 3b5f aebd 9136 05be a057 02be
00000210: 89aa 5bbe 04cf 96bc 3775 823c a12d 933e
00000220: 9511 86bd a487 743e 34d5 493e 8c6d 593d
00000230: 4746 a13e 533d b13e adf5 9b3e 8f4b 873e
00000240: 7c3f b6bd 37ca 4fbe 7d95 d03c 0408 85bd
00000250: 1ece 913c 08b0 8dbd 7f26 90bd 27ba b13d
00000260: 3b03 083e f41d eabc 49c8 43be ab1b 123e
00000270: b1db e53e a04b 9e3d ecf6 e53d fc24 c43c
00000280: 2c37 eebc 8326 6f3d aae1 c63e b04e 093e
00000290: cfdb 463e c97c d23e 4ee2 a9be 8787 683b
000002a0: b07b ee3d 8cfc 073e 83f8 053e ba28 d03d
000002b0: 4d54 f23d e7a6 c33d 3e5a 8f3d ba29 9dbd
000002c0: c921 393b a138 8abe c35d 32bd efab 2cbe
000002d0: eb50 afbc e3a9 42be 5b1d 61be 4d14 e53d
000002e0: 549a 9ebd dd29 873d 63eb 46be e53c 7bbe
000002f0: b386 25be a8eb a4bd 5350 1d3e 25df 7b3d
00000300: 4291 22be 38f9 f53c bad2 9e3d 53b9 343d
00000310: 103c 093e 5adb bebe 2bca ac3c faab 5fbe
00000320: ed8c bbbd ef85 b93d 25be a9bc 2008 4d3e
00000330: 6dc4 1f3d 8c4c 843d 45fe 80be f77c 663b
00000340: acad 243e 5b30 88be 0eb2 773e 7af8 efbc
00000350: d776 abbd d90b 193e 9449 ff3d b01a 163e
00000360: 7701 2d3e 90e5 d3bd 6a28 1fbe 06d0 6cbe
00000370: 5335 c7bd 9cf1 75be 6433 a5be ea86 cf3d
00000380: 76e8 923e 4f88 0f3d 2c33 473e 66d4 9e3d
00000390: 6dee f13d 5601 5fbd 7d76 ec3d a53d b63e
000003a0: 7d6c eebe cf77 653e 87c3 933d 24d0 9bbd
000003b0: 89ef dfbd 1e3e 723e 2da2 a23e d044 c8be
000003c0: 5e6e 7b3e eb6c 063f 125d 673e 3998 f03d
000003d0: 29e5 9b3e 39c0 e23e f672 82bd d90c f33c
000003e0: 1c08 4abe 795d 843d 27b6 793a ca5a f7bd
000003f0: b532 fabb 3ca5 1fbe 5770 9dbd b307 a0bc

0.bias f4 [64]
-0.1998984 0.13445616 0.016491856 -0.23574992 0.041979033 -0.14949282 -0.085699074 0.08846243
0.07244827 0.13437198 0.040264335 0.0009922109 -0.06900989 0.078598075 0.0047727437 0.07210853
0.03607457 0.1743401 -0.00735194 -0.09666788 -0.0149192605 -0.12292241 0.037899844 0.07925125
0.10353719 -0.16879006 -0.12844135 -0.0136982445 -0.028428277 -0.002688725 0.023838233 -0.04826967
0.010720596 -0.11813794 -0.07674264 -0.024898686 0.040018268 0.018095743 0.022816293 -0.04237762
0.19056956 -0.067729026 -0.10405758 0.05944302 -0.07449029 0.04690495 0.018171424 0.1475535
0.004098837 0.07565483 -0.16796286 -0.12788929 -0.08157785 0.043032352 -0.011659554 -0.0062488834
-0.039664727 0.23479182 -0.060142804 -0.08898957 0.09663507 0.26201075 0.04598313 0.0052361214
00000000: 2bb2 4cbe e0ae 093e ee19 873c 6d68 71be
00000010: 35f2 2b3d a514 19be ff82 afbd ca2b b53d
00000020: c25f 943d cf98 093e 37ec 243d 130d 823a
00000030: 0f55 8dbd 07f8 a03d ad64 9c3b a3ad 933d
00000040: eec2 133d 3686 323e 8be8 f0bb cff9 c5bd
00000050: ea6f 74bc bfbe fbbd de3c 1b3d 7b4e a23d
00000060: 4e0b d43d 4dd7 2cbe 2186 03be 9a6e 60bc
00000070: 6be2 e8bc 5235 30bb 6648 c33c 6bb6 45bd
00000080: 70a5 2f3c 4ef2 f1bd 3f2b 9dbd 54f8 cbbc
00000090: 32ea 233d 863d 943c 3ce9 ba3c 2894 2dbd
000000a0: ab24 433e 84b5 8abd 241c d5bd 867a 733d
000000b0: 5d8e 98bd 681f 403d 3ddc 943c 4418 173e
000000c0: 894f 863b ebf0 9a3d 75fe 2bbe 69f5 02be
000000d0: 4a12 a7bd b142 303d b707 3fbc 6fc3 ccbb
000000e0: 7b77 22bd 446d 703e 4d58 76bd 2a40 b6bd
000000f0: 9ce8 c53d 4626 863e ce58 3c3d c593 ab3b

2.weight f4 [64, 64]
0.15226378 0.108316176 -0.29469222 0.20963477 0.057541434 -0.35447636 0.5306274 -0.07670644
-0.05040618 -0.13926275 -0.21268936 -0.24658883 -0.010210346 0.33376706 -0.28436622 -0.2916975
-0.17717282 0.30054823 0.25484747 -0.25271082 0.32797265 -0.6106962 0.4245062 0.095397495
0.24576826 -0.068129085 0.16827394 0.0138612 0.08560606 0.32254994 0.110655725 0.37610093
-0.04598164 0.14574334 -0.15758796 -0.1591778 -0.17739122 0.3113407 0.10610291 -0.03052156
0.28443468 -0.190109 0.30439225 0.29572675 0.17329216 0.21967965 -0.26373383 0.24884254
0.1730855 0.25308692 -0.014459226 0.16497685 0.36075678 0.15971057 -0.5292808 -0.04208499
-0.23637436 -0.08236812 0.1951846 -0.19989343 0.12658325 0.52955955 0.28938574 -0.15777415
-0.012044595 0.17721146 -0.2635981 -0.40873587 0.069395535 -0.45912346 0.023383075 0.06822498
0.2743279 -0.07034625 -0.15856153 0.13418257 -0.20175393 -0.093462385 -0.11036325 -0.1953755
-0.17647265 0.275436 -0.21726161 0.061272506 0.051068734 -0.17960095 -0.085824855 -0.22114418
-0.09338832 0.12096791 -0.083420075 0.16024323 0.3484858 0.0062787975 -0.00034780725 0.015653173
-0.029043993 0.07072162 0.21355245 0.16577551 0.23118727 0.24936351 0.09618923 0.32479203
0.044967823 -0.58462214 0.084441066 0.10950875 -0.14632279 0.34845358 0.15449399 0.08214294
-0.009495893 -0.24976155 -0.07882222 -0.01876299 -0.17640167 -0.060151704 0.080108285 -0.17312849
0.092184246 0.05799823 -0.5890879 -0.062072042 0.19688638 0.14704634 0.0847217 0.20633863
-0.117123894 0.061642658 -0.27752906 -0.021490682 0.07354749 -0.04363348 0.12792408 0.073786914
0.21559232 0.09258615 -0.0027518603 -0.14422987 -0.3190839 0.04139908 -0.13344248 -0.05079036
0.09240691 0.2713875 0.33488214 -0.013795761 0.19784816 -0.37325025 0.22879606 0.01754681
-0.117350146 -0.079941034 -0.21134937 0.2552567 0.17937016 0.08789214 0.116645806 -0.11899707
-0.041723873 -0.15310016 -0.05767909 -0.09609438 0.27558935 0.22088972 0.1811866 0.29783133
0.14550892 -0.21078442 0.13110384 0.31278303 0.07436445 0.1300662 -0.3549375 0.16573678
-0.007356353 0.059382867 0.08666117 -0.036231827 0.13590865 -0.058048856 -0.14923093 -0.25743932
-0.094959915 -0.055621326 -0.33769712 0.11911798 0.20863692 0.16837642 0.10611148 0.07268306
-0.10468586 0.34708273 -0.22123934 -0.12810576 -0.08719615 -0.31373742 0.07612534 0.092529
0.32358363 0.070569895 0.06901278 0.1462759 -0.073557094 -0.19413345 -0.26415786 -0.269092
-0.13477106 0.07253472 0.23827583 0.028794397 0.16180348 0.012298608 0.18072867 -0.010733245
-0.03749921 0.09907182 -0.12021636 0.08160961 0.36905938 -0.1857964 -0.16044103 -0.1471228
-0.14900824 -0.16794011 0.050259497 0.038266983 0.30679756 0.18114617 0.2297603 0.25941113
0.12848948 -0.27083874 -0.13343745 0.32746428 -0.18069315 0.39270738 0.06537498 0.13444133
0.023067117 -0.11935697 0.020126646 -0.14495158 -0.12754607 0.08902363 -0.052053504 -0.24954446
0.0994512 -0.0023675598 -0.4758516 0.0667873 0.2397898 0.019701539 0.3125639 0.24799237
00000000: 09eb 1b3e dfd4 dd3d e6e1 96be 7faa 563e
00000010: 91b0 6b3d ed7d b5be 33d7 073f 4418 9dbd
00000020: b676 4ebd e59a 0ebe 3dcb 59be c881 7cbe
00000030: 4c49 27bc 84e3 aa3e 7398 91be 6059 95be
00000040: cb6c 35be 75e1 993e 5e7b 823e 5063 81be
00000050: 08ec a73e 9656 1cbf e058 d93e c35f c33d
00000060: adaa 7b3e 4387 8bbd 0150 2c3e 161a 633c
00000070: 3b52 af3d 4425 a53e 789f e23d 4d90 c03e
00000080: 3f57 3cbd be3d 153e bd5e 21be 81ff 22be
00000090: 0ba6 35be 0c68 9f3e 7c4c d93d 5a08 fabc
000000a0: 6ca1 913e efab 42be 4dd9 9b3e 7f69 973e
000000b0: 8073 313e b4f3 603e 1f08 87be 94d0 7e3e
000000c0: 533d 313e 9c94 813e 64e6 6cbc b1ef 283e
000000d0: 1db5 b83e 2b8b 233e f27e 07bf 4f61 2cbd
000000e0: 1f0c 72be 9eb0 a8bd 79de 473e ddb0 4cbe
000000f0: 0a9f 013e 3791 073f 5e2a 943e 8c8f 21be
00000100: b156 45bc ec76 353e 55f6 86be d445 d1be
00000110: 3f1f 8e3d 3b12 ebbe dd8d bf3c 8ab9 8b3d
00000120: b574 8c3e b211 90bd f45d 22be 2867 093e
00000130: 9598 4ebe 3569 bfbd 2106 e2bd 8410 48be
00000140: 3fb5 34be f305 8d3e d479 5ebe e1f8 7a3d
00000150: 732d 513d 50e9 37be f1c4 afbd 9f73 62be
00000160: 6042 bfbd 06be f73d 25d8 aabd cd16 243e
00000170: bb6c b23e 5fbe cd3b e659 b6b9 153b 803c
00000180: abed edbc 7fd6 903d 7ead 5a3e 0ec1 293e
00000190: 5bbc 6c3e 2659 7f3e dcfe c43d 244b a63e
000001a0: 2e30 383d cca9 15bf 70ef ac3d 2046 e03d
000001b0: a4d5 15be 8268 b23e ac33 1e3e 8f3a a83d
000001c0: a994 1bbc 7ec1 7fbe 8b6d a1bd d8b4 99bc
000001d0: a4a2 34be a261 76bd d00f a43d 9848 31be
000001e0: 18cb bc3d 8d8f 6d3d 77ce 16bf 413f 7ebd
000001f0: 959c 493e 5193 163e 9282 ad3d 6f4a 533e
00000200: a7de efbd 037d 7c3d 4a18 8ebe 3a0d b0bc
00000210: 11a0 963d 05b9 32bd 88fe 023e 981d 973d
00000220: 3cc4 5c3e cf9d bd3d 8e58 34bb ffb0 13be
00000230: f75e a3be 1592 293d 25a5 08be 8d09 50bd
00000240: d63f bd3d 4df3 8a3e ac75 ab3e 9e07 62bc
00000250: b598 4a3e a81a bfbe 8449 6a3e 54be 8f3c
00000260: 4655 f0bd 20b8 a3bd f86b 58be 02b1 823e
00000270: d0ac 373e cb00 b43d ffe3 ee3d bcb4 f3bd
00000280: a7e6 2abd 4ac6 1cbe e940 6cbd 21cd c4bd
00000290: 0c1a 8d3e ea30 623e fb88 393e 597d 983e
000002a0: 4a00 153e dfd7 57be 1640 063e 1925 a03e
000002b0: 644c 983d 1330 053e 5eba b5be e7b6 293e
000002c0: 900d f1bb 733b 733d 697b b13d d367 14bd
000002d0: a32b 0b3e a3c4 6dbd fecf 18be 16cf 83be
000002e0: 587a c2bd 30d3 63bd a3e6 acbe 21f4 f33d
000002f0: eba4 553e de6a 2c3e fa50 d93d dbda 943d
00000300: 8a65 d6bd d4b4 b13e 918c 62be 282e 03be
00000310: e593 b2bd 31a2 a0be 9ae7 9b3d d87f bd3d
00000320: c1ac a53e f386 903d 9356 8d3d 59c9 153e
00000330: 1aa5 96bd ebca 46be b33f 87be 6dc6 89be
00000340: 6d01 0abe 158d 943d 94fe 733e 3ae2 eb3c
00000350: d0af 253e 1a80 493c f010 393e 7eda 2fbc
00000360: c698 19bd 2be6 ca3d ff33 f6bd f022 a73d
00000370: 5af5 bc3e 6941 3ebe a74a 24be 5ca7 16be
00000380: 9e95 18be 7ef8 2bbe e7dc 4d3d d7bd 1c3d
00000390: 9214 9d3e 627e 393e 4946 6b3e 89d1 843e
000003a0: bf92 033e 60ab 8abe d4a3 08be 66a9 a73e
000003b0: a007 39be f110 c93e 51e3 853d fdaa 093e
000003c0: 40f7 bc3c 6d71 f4bd a3e0 a43c 306e 14be
000003d0: 709b 02be 0552 b63d 0e36 55bd 9588 7fbe
000003e0: 12ad cb3d 1029 1bbb d2a2 f3be c8c7 883d
000003f0: 758b 753e 1f65 a13c 6008 a03e b6f1 7d3e

2.bias f4 [64]
0.18484934 0.04640295 0.15038991 0.11492179 -0.20276177 0.09316206 -0.23861694 -0.21279022
-0.18646346 -0.00032942696 0.16093376 0.19986552 -0.1537463 0.020574203 0.086240426 0.16364785
0.16312146 -0.056286063 -0.1133628 0.18097474 -0.21110001 0.054872084 0.0015027642 -0.20258127
-0.023822555 0.020587193 0.025000492 0.15502046 0.11526956 -0.07256324 -0.14255133 -0.007347745
-0.23615219 0.22580639 0.23261352 0.119575046 0.02644622 0.08729847 -0.27783397 -0.10186442
-0.07238817 0.014744516 -0.0032920802 0.19401334 -0.2020445 -0.07336285 0.23542234 -0.37198183
-0.2576765 -0.18962872 -0.16377307 -0.09831795 0.12505308 -0.31191605 0.028002935 0.14159067
-0.01245907 0.06754097 -0.025706923 0.061508838 -0.03009878 -0.19602898 -0.12468587 -0.13648503
00000000: 2549 3d3e 0511 3e3d d0ff 193e 1e5c eb3d
00000010: c8a0 4fbe c0cb be3d 0058 74be aee5 59be
00000020: 47f0 3ebe f0b6 acb9 d2cb 243e 8ca9 4c3e
00000030: ac6f 1dbe 3b8b a83c d29e b03d 4d93 273e
00000040: 5009 273e 378c 66bd c12a e8bd 7151 393e
00000050: 9a2a 58be 8dc1 603d 66f8 c43a 7771 4fbe
00000060: 8527 c3bc 79a6 a83c d5cd cc3c afbd 1e3e
00000070: 7212 ec3d 099c 94bd faf8 11be 5ac5 f0bb
00000080: e1d1 71be ca39 673e 3d32 6e3e c3e3 f43d
00000090: bea5 d83c 8ac9 b23d 4140 8ebe 4b9e d0bd
000000a0: 4040 94bd fc92 713c f1bf 57bb 6fab 463e
000000b0: c1e4 4ebe 433f 96bd 8e12 713e 6774 bebe
000000c0: 2dee 83be 082e 42be 21b4 27be ec5a c9bd
000000d0: ea0d 003e 76b3 9fbe 6966 e53c 25fd 103e
000000e0: 2121 4cbc ec52 8a3d 5397 d2bc b1f0 7b3d
000000f0: b791 f6bc d2bb 48be 4e5b ffbd bbc2 0bbe

4.weight f4 [4, 64]
0.16072561 0.2546221 0.063134655 0.07777895 -0.21279603 0.3792978 -0.12362576 -0.14802511
-0.049785327 -0.15691355 0.12957382 0.17405792 -0.3576043 -0.010064279 0.2369733 0.2659321
0.14989296 0.0060102837 -0.06150872 0.1826557 -0.19376184 0.2776741 -0.1367155 -0.19132419
0.09786809 -0.0654465 0.22281377 0.011342033 0.30837008 -0.29656547 -0.09084377 -0.25741354
-0.084403776 0.11608495 0.1575081 -0.11624339 0.052494053 0.056244176 -0.18599501 -0.10056113
-0.14049263 -0.2180962 -0.17829873 0.10857502 -0.013800237 -0.26731762 0.12109628 -0.3238552
-0.11443695 -0.1756959 -0.11181077 -0.04372576 0.0452165 -0.1238956 0.083552554 0.119356975
0.082706176 0.014129186 0.14955026 0.17614716 -0.23667881 -0.12977739 -0.15299599 -0.24884261
-0.23466395 0.08599555 0.03776119 0.3176759 -0.17724316 -0.073395155 0.006737303 0.25853154
0.3035088 -0.07494514 -0.28758663 0.18933493 0.1133421 0.2165282 0.015852947 0.16805203
0.26059926 0.04937953 -0.22781657 -0.27912897 -0.21405616 -0.32896274 -0.16845696 -0.18680245
0.061513785 0.15822105 -0.19500856 0.39569023 0.05728279 0.058035113 -0.14394614 -0.18274714
-0.0028492261 -0.013166261 0.0669452 -0.11001142 -0.20322265 -0.37593406 -0.03697228 0.23170993
0.26739964 -0.030596225 -0.004840413 -0.44148383 -0.078225695 0.22709857 -0.20694059 0.46043596
0.074870944 -0.14082846 0.28390616 -0.29009813 0.30278596 0.089367546 -0.028871326 0.12041814
-0.32263005 -0.15791163 -0.09559413 0.17444248 0.40192246 -0.29046592 -0.39012152 -0.11184203
0.11996708 -0.31039444 -0.08208457 -0.36176005 0.22259054 -0.32187027 0.08791925 -0.12846555
-0.21410745 0.3442525 0.10005431 -0.3973625 0.39651945 -0.22240193 -0.37320322 -0.25171223
-0.114153 -0.018089822 0.37421533 0.0029059867 0.3850637 -0.235258 0.05298051 0.2628705
-0.12299833 -0.031124271 -0.34036076 0.119047165 -0.24098691 0.38111004 0.13494347 0.3299911
0.11857414 -0.043374177 -0.022649722 0.27610686 0.1735559 0.041829918 0.044619802 -0.05622587
0.020783098 0.26568353 0.06488146 0.049987387 0.106446564 0.33808064 0.18469065 0.072925195
-0.008761707 -0.116988055 -0.08947876 0.38085228 -0.3399389 -0.14491393 -0.21744354 -0.05684116
-0.3534738 0.024062509 0.43512902 -0.24469942 0.3222773 -0.033961933 0.27491492 0.10359603
-0.18246728 -0.09228201 -0.23607549 -0.18305577 0.37518156 0.2454342 0.3400176 -0.04590978
-0.071528494 0.12208438 0.12443528 -0.13661768 -0.25583807 -0.17024729 -0.11642646 -0.12364971
-0.30692777 -0.015305903 0.15348667 0.07651561 0.025740493 0.53041077 0.12384848 0.28695822
-0.24702853 0.11133128 0.2371247 -0.41535762 0.018190837 -0.1454507 0.24068294 0.016494304
0.3056042 -0.38414347 -0.5360522 0.24677013 0.070751816 0.05645454 0.40704486 -0.059806347
-0.15416114 0.083519444 -0.09959861 -0.035332933 0.46275145 -0.21614344 -0.061314605 -0.035925366
-0.0041623972 0.41137075 -0.004862469 0.10273184 -0.17396562 0.030833505 -0.019762157 -0.49277642
0.56911767 -0.28196773 0.17250438 -0.19605185 -0.19335671 0.60257447 0.039237197 0.022717224
00000000: 4195 243e d45d 823e be4c 813d 924a 9f3d
00000010: 34e7 59be 5233 c23e 812f fdbd e593 17be
00000020: b3eb 4bbd f2ad 20be 00af 043e 3d3c 323e
00000030: e917 b7be a5e4 24bc 21a9 723e 4128 883e
00000040: 8a7d 193e eaf1 c43b 91f0 7bbd 190a 3b3e
00000050: 8169 46be 4d2b 8e3e 26ff 0bbe 7dea 43be
00000060: 116f c83d d108 86bd 4b29 643e efd3 393c
00000070: afe2 9d3e 6ed7 97be 4c0c babd b5cb 83be
00000080: e3db acbd f2bd ed3d ce49 213e 0411 eebd
00000090: 0104 573d 4b60 663d 7a75 3ebe fef2 cdbd
000000a0: 4ddd 0fbe 9c54 5fbe f193 36be 955c de3d
000000b0: 641a 62bc dbdd 88be 5401 f83d 59d0 a5be
000000c0: eb5d eabd a0e9 33be 0cfd e4bd c819 33bd
000000d0: f034 393d fabc fdbd 9a1d ab3d 6e71 f43d
000000e0: db61 a93d 1a7e 673c b423 193e ec5f 343e
000000f0: ee5b 72be 5de4 04be fbaa 1cbe 99d0 7ebe
00000100: bf4b 70be 6f1e b03d 7aab 1a3d 6aa6 a23e
00000110: 3b7f 35be 3350 96bd 98c4 dc3b 3f5e 843e
00000120: 8165 9b3e d67c 99bd 8e3e 93be 04e1 413e
00000130: e71f e83d 92b9 5d3e 0ade 813c d515 2c3e
00000140: 446d 853e 3142 4a3d bf48 69be fee9 8ebe
00000150: 8a31 5bbe ce6d a8be fb7f 2cbe 2449 3fbe
00000160: e1f5 7b3d b304 223e 53b0 47be e997 ca3e
00000170: 5ca1 6a3d 3ab6 6d3d 9e66 13be 1122 3bbe
00000180: 15ba 3abb 4db7 57bc 911a 893d ab4d e1bd
00000190: 9919 50be 6e7a c0be 3f70 17bd 5e45 6d3e
000001a0: 9be8 883e efa4 fabc 549c 9ebb 2b0a e2be
000001b0: cb34 a0bd 878c 683e 3ce8 53be 43be eb3e
000001c0: f055 993d 5635 10be 265c 913e be87 94be
000001d0: c306 9b3e 5506 b73d 8f83 ecbc c99d f63d
000001e0: c42f a5be 96b3 21be dbc6 c3bd 0da1 323e
000001f0: c8c8 cd3e f3b7 94be 02be c7be 6f0d e5bd
00000200: 4db1 f53d 05ec 9ebe f41b a8bd 9d38 b9be
00000210: c6ee 633e 2ecc a4be 020f b43d 798c 03be
00000220: fc3e 5bbe dd41 b03e 46e9 cc3d 1973 cbbe
00000230: 9904 cb3e 55bd 63be 7e14 bfbe 6de0 80be
00000240: 0cc9 e9bd 1b31 94bc 2799 bf3e 5e72 3e3b
00000250: 1227 c53e 79e7 70be 1702 593d f696 863e
00000260: 8ce6 fbbd 54f8 febc c443 aebe 00cf f33d
00000270: 46c5 76be db20 c33e 9f2e 0a3e 98f4 a83e
00000280: 00d7 f23d 1fa9 31bd e98b b9bc e15d 8d3e
00000290: a3b8 313e d955 2b3d 41c3 363d 194d 66bd
000002a0: 5141 aa3c ac07 883e 92e0 843d 93bf 4c3d
000002b0: a800 da3d e818 ad3e 8c1f 3d3e ce59 953d
000002c0: 438d 0fbc 6f97 efbd a440 b7bd 12ff c23e
000002d0: 790c aebe 5164 14be 85a9 5ebe 47d2 68bd
000002e0: 85fa b4be bd1e c53c 3bc9 de3e 7c92 7abe
000002f0: 8801 a53e ab1b 0bbd a6c1 8c3e 282a d43d
00000300: b4d8 3abe 5afe bcbd c6bd 71be f972 3bbe
00000310: cc17 c03e 1a53 7b3e c916 ae3e e50b 3cbd
00000320: 887d 92bd 6007 fa3d edd7 fe3d 81e5 0bbe
00000330: 35fd 82be 4e55 2ebe ff70 eebd 0f3c fdbd
00000340: a325 9dbe 9cc5 7abc 9c2b 1d3e 37b4 9c3d
00000350: badd d23c 00c9 073f 46a4 fd3d 30ec 923e
00000360: 0cf5 7cbe a701 e43d d1d0 723e c1a9 d4be
00000370: f304 953c 07f1 14be 9775 763e 101f 873c
00000380: 2778 9c3e 74ae c4be b83a 09bf 4fb1 7c3e
00000390: 54e6 903d e03c 673d 2f68 d03e 80f7 74bd
000003a0: 6bdc 1dbe 3e0c ab3d 5bfa cbbd 44b9 10bd
000003b0: c2ed ec3e b554 5dbe 0625 7bbd 7a26 13bd
000003c0: b864 88bb 309f d23e 5955 9fbb 1265 d23d
000003d0: 0b24 32be 8c96 fc3c 3fe4 a1bc 314d fcbe
000003e0: b2b1 113f 135e 90be fda4 303e d1c1 48be
000003f0: 4dff 45be 5242 1a3f 2fb7 203d 7919 ba3c

4.bias f4 [4]
0.21842673 0.09261218 0.082574576 -0.12214758
00000000: 42ab 5f3e 74ab bd3d dc1c a93d 8328 fabd
