TLCS/models/model_60/trained_actor_model.pt (torch, 40695 bytes, 6 tensors)

0.weight f4 [64, 80]
000000 a6 e7 72 3d 0b 86 78 bd 41 86 be bd e4 64 30 bd
       0.05930295 -0.06067471 -0.09302951 -0.043064967
000010 c7 38 9f bc 79 b1 16 be f7 db 68 3d fa 90 5b 3b
       -0.019436253 -0.14716138 0.0568504 0.003350316
000020 31 72 c7 bc c2 82 7b bd 6a ef 16 be 0d e8 34 3e
       -0.024346443 -0.061403997 -0.14739767 0.17666645
000030 56 44 9c 3d 56 bf 26 bd 42 4f c9 3c 0d 02 1e be
       0.076302215 -0.040709816 0.024573926 -0.1543047
000040 21 02 73 3d 6e 6d 71 3d 35 4d 82 bc 64 5e cc 3c
       0.059328202 0.05894225 -0.015905956 0.024947353
000050 04 0f cc 3d bb 5e 0c be 8a 63 33 3d 51 15 34 bc
       0.099638015 -0.13708012 0.0437961 -0.01099141
000060 89 06 15 3d 9d d6 82 3d 8e 67 02 be 39 44 98 bd
       0.036383186 0.063885905 -0.12734815 -0.074348874
000070 d6 0c 62 3a e2 e7 94 3d dd a0 4f bd 18 9a a9 bc
       0.00086231285 0.07270791 -0.05069052 -0.02070336
000080 17 f1 e4 3c 7e 94 d6 3c 9f 5d 80 bb e4 ba 96 bd
       0.027946992 0.026193853 -0.0039174105 -0.07359865
000090 f5 be ef 3c e8 78 8d ba 1d 8e 13 3e 4b c9 03 3e
       0.02926586 -0.0010793479 0.1440968 0.12869756
0000a0 23 f0 87 bd 98 8c 33 3c ba 00 29 3d 0a f1 42 bc
       -0.06637599 0.010958813 0.04126046 -0.0118982885
0000b0 01 53 84 bd e2 a3 f8 bb 52 32 96 bd 7e 38 0a 3d
       -0.06461144 -0.0075878957 -0.073338166 0.03374528
0000c0 dd 39 87 3d 59 0d a4 3d 08 06 92 3d af 94 a1 bd
       0.066028334 0.08010358 0.071300566 -0.07889687
0000d0 6c bc 2b bd db 69 f0 3c 37 e0 55 3b 48 78 38 3d
       -0.04192774 0.02934735 0.0032634863 0.045036584
0000e0 6b 71 8e 3d f9 0c 84 bd 73 d5 aa bd b4 fe 0d 3e
       0.069552265 -0.06447787 -0.083414935 0.13866693
0000f0 f0 89 82 bd dc 61 f1 3d 3e 72 37 bd 96 f3 dc bd
       -0.06373966 0.11786243 -0.044786684 -0.10788648
000100 18 c7 dc bd e3 73 00 3c b1 c0 d8 3d 6e f3 83 3d
       -0.107801616 0.00784013 0.10583628 0.06442915
000110 7e bf 55 3d 8e 5f 17 3d 40 45 6c 3d 99 a9 47 3d
       0.052184574 0.036956362 0.05768323 0.048745725
000120 39 9e 06 be 2b e9 2b be 7b 1d 83 3d 4b 00 40 be
       -0.13146295 -0.16788165 0.06402107 -0.18750112
000130 a7 39 bd bd 67 e1 1e bd 1a d1 1d 3e 07 1a a1 3d
       -0.09239512 -0.03878918 0.15411797 0.078662924
000140 18 73 82 3d fa 35 12 3c 81 4a aa 3c a3 13 4d bd
       0.06369609 0.008924002 0.02078748 -0.050067555
000150 a3 50 a2 3b db 39 e4 bd 03 52 11 3d a3 54 15 3b
       0.0049534603 -0.111438476 0.035478603 0.0022786043
000160 65 18 04 be d5 1c 40 bd 22 0c ba bd 05 a9 3c be
       -0.12899931 -0.046902496 -0.090843454 -0.18423851
000170 d9 5a 5f bd 84 bb a0 bb db 4e 75 3c db 58 89 bc
       -0.05453 -0.004905166 0.014972414 -0.016766002
000180 17 b0 1d 3e 7c 0b d1 3d ce aa 29 be 06 79 26 3d
       0.15399204 0.102072686 -0.16569063 0.04064276
000190 7c f8 2e 3e dc 9e de bc be c6 02 bd db b3 94 3d
       0.17086977 -0.02717536 -0.031927817 0.07260867
0001a0 50 20 77 bd 79 57 ac bd 4d 92 4d bd f3 c5 83 3d
       -0.06033355 -0.084151216 -0.05018835 0.0643424
0001b0 a1 32 e8 ba cb 5a 1a be 9a 57 dd bd 7e c3 e0 bd
       -0.0017715284 -0.15073697 -0.10807724 -0.10974787
0001c0 7e c0 a7 bc c1 4b c6 39 25 6a 40 be 63 ab 14 3e
       -0.02047753 0.00037821944 -0.18790491 0.14518504
0001d0 d3 a3 c8 3c a1 44 56 bd 57 0b d4 3b e2 0c e1 3c
       0.02449218 -0.052311543 0.0064710784 0.027471963
0001e0 c7 81 d9 3c c8 e8 e9 3c 49 d4 57 3d 0c 72 fe 3d
       0.02655114 0.028553382 0.052692685 0.124240965
0001f0 29 6d b5 3d 87 a4 8f 3d ee dc a4 3d e3 34 f5 3c
       0.08858711 0.07013803 0.080499515 0.029932445
000200 db 98 4a 3d 45 92 c0 bd 70 1b bf bc 9a ff f1 3d
       0.04946218 -0.09402899 -0.023328513 0.1181633
000210 4b dd 81 3d da ff 9a bc cb 50 9f 3d 4b 96 52 be
       0.063410364 -0.018920828 0.07779082 -0.20565145
000220 b0 46 da 3b cd dd 2e bd d9 f1 34 bd 0c e9 55 bd
       0.0066612586 -0.042691994 -0.044175956 -0.052224204
000230 07 87 4d bc 82 e8 6c bd 2c ab a0 3d ce 46 1d 3d
       -0.0125444 -0.057838924 0.078451484 0.038397603
000240 9e dc ef bd 86 9f d7 bc 33 ea 07 be fe 6c 98 bc
       -0.11712001 -0.026321184 -0.13272934 -0.018606659
000250 56 c7 de 3d c8 f5 00 bd 6c 8b 56 3c fa 73 a3 bb
       0.10877864 -0.031484395 0.013094764 -0.0049881907
000260 e2 e1 ef 3d 9f 0d d1 bc d3 08 ce bd 35 60 5b be
       0.117130056 -0.02551919 -0.10060277 -0.21423419
000270 06 08 2b be 2a d3 19 be a3 00 fb 3d 4c 7d ae bd
       -0.1670228 -0.15021959 0.12255981 -0.08519992
000280 e7 43 3d 3b f5 d9 2b bd 8d bc 30 3e ce 86 64 3d
       0.0028879584 -0.041955907 0.17259426 0.055792622
000290 90 15 be 3d a7 bf a1 3c c4 e8 b0 3c 00 04 a8 bd
       0.092814565 0.019744707 0.021595366 -0.08203888
0002a0 f1 1c 14 be e6 00 d3 3b b3 4e 8e 3d 1f f3 09 be
       -0.14464165 0.006439316 0.069486044 -0.1347165
0002b0 67 93 2f 3e 86 b0 cc 3b 81 82 13 3e 26 ed e4 bd
       0.17146073 0.006246629 0.14405252 -0.11178045
0002c0 2e d4 9d 3d 97 bc a2 3d f2 1d 84 be 30 8a dc bd
       0.07706486 0.07946127 -0.25804096 -0.10768545
0002d0 81 ef ae bd 24 f2 ef 3d 67 5c 3c bd 9d 53 b2 3d
       -0.085417755 0.117161065 -0.04598656 0.08707354
0002e0 02 fb bc 3c 5e 5b 76 3d c9 0f 2a 3d ef 4e 17 bb
       0.023068909 0.06014573 0.04151896 -0.002308782
0002f0 8c b9 36 bc f1 ff 25 3d b8 63 02 3e 49 a7 4d bd
       -0.011152636 0.040527288 0.12733352 -0.050208364
000300 1e 8c cf bd e9 55 6e 3d e8 e1 85 be de e7 24 3d
       -0.10134147 0.0581874 -0.26148915 0.04026019
000310 bc fe b9 bc ce 26 30 3c a5 86 f2 3d 2e 92 8a 3d
       -0.022704475 0.010751439 0.11842088 0.06766163
000320 70 86 ac 3c fe 96 3c 3d 0c c4 94 3b f0 c6 12 3e
       0.021060199 0.046042435 0.004539972 0.14333701
000330 f2 38 86 bd e3 90 14 be 01 41 41 3b 5a d3 a4 bd
       -0.0655383 -0.14508395 0.0029488208 -0.080481246
000340 d0 ca 25 3d 03 49 c1 bc 32 74 c0 3d ef 49 77 bd
       0.04047662 -0.023594385 0.093971625 -0.060373243
000350 43 10 cc 3d bf db a6 bd b6 37 d8 3c a6 8a 25 bd
       0.09964039 -0.08147382 0.026393753 -0.04041543
000360 57 36 2c bd 7a 25 15 be bb a5 24 be 2e eb 98 3d
       -0.04204401 -0.14565077 -0.16078846 0.07466732
000370 61 ca e6 3c 76 72 67 bc 03 f3 c1 bb 81 19 99 3d
       0.028172674 -0.014126411 -0.005918862 0.074755676
000380 ae 47 0f bd 08 0d 8c bc 78 37 0a be 77 04 99 3c
       -0.03498047 -0.017096058 -0.13497722 0.018678887
000390 81 b7 52 bd 41 a1 9f bd 87 64 0a be ec fa 04 3e
       -0.051444534 -0.077944286 -0.1351491 0.12986344
0003a0 80 aa 57 3c 00 1f 84 be c2 48 9d bd f1 1b ac bd
       0.013163209 -0.258049 -0.07679893 -0.08403767
0003b0 9c cf ee 3c 88 d5 50 bd 75 88 dc bd b6 d1 25 bd
       0.02915173 -0.05098489 -0.107682146 -0.0404832
0003c0 76 14 53 bd f1 a6 93 3d bc 79 2a be 2d 96 8c bc
       -0.051533185 0.07209576 -0.16648 -0.017161453
0003d0 ed 5b 9c bd 43 43 f6 bd c2 58 33 3d d5 1b 27 3d
       -0.07634721 -0.12024548 0.043785818 0.040798027
0003e0 58 30 79 bc 70 14 04 bd 5b d5 34 bc e8 e6 14 bc
       -0.01520928 -0.032246053 -0.011037196 -0.009088255
0003f0 6f 6a 2b be 26 86 bc bd f4 fb 0e be 2e a9 af ba
       -0.1673982 -0.09205274 -0.139633 -0.001340186

0.bias f4 [64]
000000 f7 0b 0b 3c ab 0f 33 3c 13 71 6a 3d 04 7e 5f 3d
       0.008486739 0.0109290285 0.057236742 0.054563537
000010 25 62 ef bd 03 ea 84 3c 6a 83 3f 3d 0f 43 a7 bd
       -0.116886415 0.016224867 0.046756186 -0.08167087
000020 33 8b 7d 3c 41 a5 b7 3d 12 28 cf 3c c5 dc bb 3d
       0.015475082 0.089670666 0.025287662 0.09172968
000030 10 89 32 3d cc 85 aa bd 0c 2d ce 3b 14 a0 6f bd
       0.043587744 -0.08326301 0.006291991 -0.05850227
000040 01 75 8c bd e5 ce 11 bd e7 cb 35 bd 49 4f 19 3d
       -0.06858254 -0.0355977 -0.04438391 0.037429128
000050 1f f0 da 3c 88 93 0a 3d f6 50 41 3c b9 b0 06 3d
       0.026725827 0.033832103 0.011799088 0.03288338
000060 37 40 18 bd 1b f8 85 3d 53 ac 30 3b 1f ed 68 3d
       -0.037170615 0.06541463 0.0026958182 0.05686676
000070 00 78 77 3d 6f 02 8c 3d bb 08 26 3d 7e 90 f3 3c
       0.060417175 0.06836402 0.04053567 0.029731985
000080 3f 61 c0 3d bc 69 e5 bc 4c b7 c4 3c 6c df 18 3d
       0.09393548 -0.02800452 0.024013184 0.037322447
000090 a6 7f d5 bc 0d ef 2a bd 0e 63 ef bc 70 a2 94 3d
       -0.026061844 -0.041731883 -0.029222038 0.07257545
0000a0 f8 ed 45 ba 70 ad 20 3d 8f f8 9e bd 53 1a b3 bb
       -0.0007550414 0.039227903 -0.077622525 -0.0054657846
0000b0 27 ab 5d 3d 96 e9 85 bd 7a 2a 7d 3d bc c6 f9 bc
       0.0541183 -0.065386936 0.061808087 -0.030490272
0000c0 67 7a be 3d f3 79 d9 bd 49 f9 92 bd 88 b4 b7 3b
       0.0930069 -0.10618963 -0.071764536 0.005606238
0000d0 e9 85 e8 bd 47 25 d6 bd 09 08 d9 bd 70 23 c9 bc
       -0.11353666 -0.10456329 -0.10597236 -0.02455303
0000e0 af 1d 40 3d 20 02 b7 bc a0 68 4e 3d 4b 43 e4 3c
       0.04690331 -0.02233988 0.050392747 0.027864119
0000f0 21 b5 ab 3c 93 5c d2 3d 35 f5 4c bd 6a 78 72 3c
       0.020960392 0.102715634 -0.050038535 0.014799217

2.weight f4 [64, 64]
000000 38 f8 7c bd 10 d4 d5 bc d6 64 c2 3d e5 e5 60 3d
       -0.061760157 -0.026102096 0.09491889 0.054906745
000010 1a 18 aa 3d 3c b6 8f 3d d1 ec e1 bd c1 36 8b bd
       0.08305378 0.0701718 -0.11031497 -0.06797553
000020 95 5b ff 3c 19 c5 4f bd dd 25 18 3e ff 78 a7 3d
       0.0311716 -0.050725076 0.14858194 0.08177375
000030 17 1d 4c 3d d9 eb 4a be 7a 91 d3 bd 60 2c cc 3d
       0.04983243 -0.19816531 -0.10330482 0.09969401
000040 88 61 21 bd 29 2f ee bd 50 6d cd 3d 00 16 34 3d
       -0.039399654 -0.11630089 0.10030615 0.043966293
000050 34 25 df 3d 23 33 9e bc 38 07 ed 3d ec 68 75 bd
       0.10895768 -0.019311493 0.115736425 -0.059914514
000060 41 62 b8 bd cd 7d 83 bd 49 3f 12 be 2d b3 00 bc
       -0.090031154 -0.06420479 -0.14281954 -0.007855219
000070 97 7f f8 3d 43 b6 37 bc 1f 58 2e 3e 0e 82 9d bd
       0.12133711 -0.011212888 0.17025803 -0.076908216
000080 09 ce 85 3d b3 7e b0 3c 4a 40 f3 bc 7f 4c cb bb
       0.06533439 0.02154479 -0.029693741 -0.0062041874
000090 aa 44 74 bd c8 e3 4c 3e 2b 81 0a 3e 51 54 bd 3d
       -0.059635796 0.20008767 0.13525836 0.09244598
0000a0 25 4a b1 3c 6c 01 e8 3d 04 f3 9a 3d 2b e8 e3 bd
       0.0216418 0.11328396 0.07565883 -0.11128267
0000b0 8c 37 c7 bd a1 7c 2e 3e 44 97 6b 3c dd c2 cd bd
       -0.097273916 0.1703973 0.014379326 -0.10046933
0000c0 a6 60 6a bd 5e 81 89 bd a3 12 74 bd cc 10 01 3e
       -0.057221077 -0.06714128 -0.059588086 0.12604064
0000d0 31 8b f9 3d 3a 39 29 bd 7d 44 85 bd 35 30 95 bd
       0.12184752 -0.04131434 -0.06507204 -0.072845854
0000e0 1c c7 0c be a9 e5 ec 3d f9 60 94 3d f6 24 e4 bd
       -0.13747829 0.11567242 0.072450586 -0.11139862
0000f0 22 04 9a 3b 6d 56 01 be 0a 5e 42 bd 1c 84 8f bd
       0.0047001997 -0.12630625 -0.047452964 -0.0700762
000100 69 66 7c bd b6 f7 eb bd 7d 24 1c bd c1 34 2f 3d
       -0.061621103 -0.115218565 -0.038120735 0.04277492
000110 b8 3b 98 3d 9d 57 98 3d cf 69 33 3c 2c 75 ca 3b
       0.074332654 0.07438586 0.01095052 0.0061785188
000120 ed 8f 14 3c dc 34 5d 3d 3a 54 1f 3e 76 9d d2 bd
       0.009067518 0.05400549 0.15559474 -0.102839395
000130 24 2a 65 3a f7 41 e3 bd 4f 6c 89 3d f4 7b e1 3b
       0.0008741936 -0.11096566 0.06710111 0.0068812314
000140 51 24 18 3d 92 02 b6 3d c6 e9 04 3e 65 7b 3a 3d
       0.03714401 0.08887209 0.12979802 0.045527834
000150 e9 fc be 3c a5 e6 2b be 7c 92 e7 3d 48 e2 a7 bd
       0.023313956 -0.16787203 0.113072366 -0.081974566
000160 6f 27 ff 3b 67 92 16 bc 5b 69 36 3d 02 29 03 3e
       0.0077866833 -0.0091901785 0.04453407 0.12808612
000170 d3 6c 09 3e 74 b8 04 3e aa 20 f8 bc c4 a6 aa 3c
       0.1342042 0.12960988 -0.030289013 0.020831473
000180 41 e7 c9 bd 44 f6 25 bd 98 d8 6f 3d 65 55 00 be
       -0.09858561 -0.04051806 0.05855617 -0.12532575
000190 ef 77 c9 bd ce 80 6d 3e ab 9c 11 3e 33 0a b5 3d
       -0.09837329 0.23193666 0.1421992 0.08839836
0001a0 84 cf 04 3e 67 b9 20 bd de 74 18 bc cc 23 32 be
       0.12969786 -0.039239313 -0.009305207 -0.17396468
0001b0 24 6c 5f be 8a 20 51 bc d5 ec 20 bd f3 6c 1e bb
       -0.21818596 -0.012764106 -0.03928836 -0.0024173826
0001c0 d6 1d ed 3d d9 50 f3 3b 4a f8 9f bd e9 8f 82 bd
       0.115779564 0.0074254093 -0.07811029 -0.06375105
0001d0 24 bd e9 3d 2c 05 89 bd 3c ef 2a bd 17 35 26 3c
       0.11413029 -0.066904396 -0.041732058 0.010144494
0001e0 6e fe ee bc 5a 20 5f 3c fa 70 09 3e b6 85 cf 3d
       -0.029174056 0.013618553 0.13422003 0.10132925
0001f0 61 a3 97 bd b3 c2 99 bd 00 d9 b7 3d 7c 83 0e 3e
       -0.07404209 -0.07507839 0.08976936 0.13917345
000200 3c 94 0b 3d 2a 9c 3e 3e 8c a6 82 3c d9 55 36 3d
       0.034076914 0.1861426 0.015948556 0.044515464
000210 e6 5e 03 3e 25 89 17 3d aa 96 2a 3c bf b8 98 bd
       0.1282917 0.036996026 0.010411898 -0.074571125
000220 ee b4 4f be 4f 89 4d bd 83 a9 ba bd a1 79 a4 3d
       -0.20283863 -0.050179776 -0.09114363 0.080310114
000230 03 d8 27 be 9e 74 32 3d 4f 43 a0 3d e9 7c 1c 3d
       -0.16390996 0.043568246 0.07825338 0.03820506
000240 26 c5 18 bd 0a 62 93 3d b3 fe 16 be 68 cc 48 3d
       -0.03729739 0.07196434 -0.14745598 0.049023062
000250 06 75 27 3d 32 a8 93 3c 29 48 0b be b3 a2 ba 3d
       0.040883087 0.018024538 -0.13601746 0.09113064
000260 b0 05 7d bc 9c 56 50 3d e9 a0 34 3d 11 69 45 be
       -0.015443251 0.050863847 0.04409877 -0.19278361
000270 e8 53 ce 3d 40 9b d4 bb 4f 9e 12 be 34 a9 a7 bd
       0.100745976 -0.006488234 -0.14318202 -0.0818657
000280 5a b2 8d 3d c1 b0 27 3c 7f 22 f3 3c 7b d9 23 bd
       0.069187835 0.0102350125 0.029679535 -0.040002327
000290 ae 2a 41 3e 1d 1e 51 bc e0 27 0c be 7d 51 4e 3e
       0.18863937 -0.012763527 -0.13687086 0.20148273
0002a0 65 e6 b6 3d 53 39 fa b9 26 0d 7f 3d 84 44 99 bd
       0.08930663 -0.00047726426 0.0622684 -0.074837714
0002b0 f2 ac ea bd d2 59 a0 3d 79 9f 98 bd 06 af 04 be
       -0.11458768 0.07829632 -0.07452292 -0.12957391
0002c0 3b f0 56 3d d8 fb b5 bd 4b 92 8e 3d b1 dc 6f bc
       0.052475195 -0.08885926 0.06961497 -0.014640019
0002d0 ed d1 9d 3c df 0b c3 bd 53 fc d3 bd 1b 3d 4a 3e
       0.01926514 -0.095237486 -0.103508614 0.19749872
0002e0 0a d6 02 3d 7a b2 a5 3d 6e 2e f8 3d 2f 38 a2 3c
       0.031942405 0.08090682 0.12118231 0.019802181
0002f0 d0 fd 8e 3d 38 a9 9f 3d 96 c6 af bb 53 ac a1 3c
       0.06982005 0.07795948 -0.0053642495 0.01973549
000300 18 df 42 3e 32 54 40 be d1 c6 ba bd 94 43 50 bd
       0.19030416 -0.18782118 -0.091199525 -0.050845698
000310 18 c6 bc 3d 3e b6 f1 bd 29 2a ad bd 10 67 c5 3d
       0.09217471 -0.11802338 -0.08455307 0.09638798
000320 d6 5b 0a 3e 72 52 15 3e b8 b3 b5 bd 0d 6c 27 bd
       0.13511595 0.14582232 -0.08872169 -0.04087453
000330 0e bf e8 bb 3c e6 25 3e 98 49 09 3e 4a e2 3a be
       -0.0071028536 0.16201109 0.1340698 -0.18250385
000340 91 e0 9d bd b5 26 91 3b 75 26 7e bd 8e 50 82 bd
       -0.07708848 0.004429663 -0.062048394 -0.06363021
000350 f5 d3 9d bd 66 2d be 3d bc ca 0a 3c bb 45 a2 3c
       -0.07706443 0.09286003 0.008471187 0.01980864
000360 57 a4 f2 bc 2a 21 a3 3d a7 2a 76 bc 29 14 44 bd
       -0.029619379 0.0796531 -0.015024818 -0.04787079
000370 00 91 42 bc d6 6e b5 bc ba 3c a0 3d d2 ef bd bd
       -0.011875391 -0.022147577 0.07824083 -0.09274258
000380 92 f1 b8 bd d0 af bf bd 4a e5 78 3d df 13 91 bd
       -0.09030451 -0.093597054 0.060765542 -0.07083868
000390 ea b5 63 3e c3 e4 35 be 8d 78 bc bd e8 c3 d8 bc
       0.22237363 -0.17763047 -0.09202681 -0.026460603
0003a0 ab 32 75 bd 4d 9a 35 be 04 4a 04 bd da 25 4b 3e
       -0.059862774 -0.17734642 -0.03229715 0.19838658
0003b0 76 01 29 3e 83 cf c7 bd ae 72 7b bc e3 cd c0 3c
       0.16504464 -0.097563766 -0.015347166 0.023535674
0003c0 97 fb 50 bd 24 10 cc bc 88 20 03 be d6 8b e3 3d
       -0.051021185 -0.02491004 -0.12805378 0.11110656
0003d0 37 bd ff bd 13 9b cf bc 6e e5 d7 3d 70 23 aa 3c
       -0.12487262 -0.0253425 0.10541807 0.020768851
0003e0 71 b0 95 bb b9 54 df 3d 84 3a f2 bd af 5a ff 3d
       -0.0045681526 0.109048314 -0.11827567 0.124684684
0003f0 fb 1c 08 3d 20 b2 90 bd 33 f2 b5 bd 32 91 ad bd
       0.033230763 -0.07065225 -0.088840865 -0.084749594

2.bias f4 [64]
000000 21 6e d7 3b 83 3f c3 3d e5 a0 d1 3d f7 c5 2c bd
       0.0065744077 0.09533598 0.10235766 -0.04218098
000010 9c cd ce bd d3 21 51 bc 3c 5a 1e 3d 37 94 bc 3c
       -0.100978106 -0.012764412 0.038660273 0.023019893
000020 c3 63 ee bd 7d 4a c9 bd 58 21 27 3d f6 56 8b 3d
       -0.11640122 -0.09828661 0.040803283 0.06803696
000030 d8 8d f0 bd 17 5a 9d bc eb 8c c6 bd 9d b6 18 3c
       -0.117458045 -0.019207997 -0.09694847 0.009320882
000040 6f df a4 3d 6a b6 27 3d be e4 7f 3d 33 db 8f bc
       0.08050429 0.040945448 0.062474005 -0.017560577
000050 1c 4c e1 3d 58 14 c7 bd ac 6b c4 3d ef 9d bf bd
       0.11000845 -0.09720677 0.09590849 -0.09356295
000060 41 18 a0 bc 97 87 99 3c 4e 47 98 bc 83 a5 50 bd
       -0.019542815 0.018741412 -0.018588688 -0.050939094
000070 de 3b a8 3c df 4a 88 bd ae 1d 72 3c ad a9 be bd
       0.02053636 -0.066549055 0.014777584 -0.09309707
000080 1c 11 e5 bd e5 61 9b bd 29 88 b5 bc c0 7b e2 bd
       -0.11184904 -0.07587031 -0.022159653 -0.1105876
000090 ac e8 b3 bd 75 be 00 be 9c a0 51 3d d2 a5 dd bd
       -0.08784613 -0.12572654 0.05117856 -0.10822643
0000a0 64 86 8b 3d 52 fa 06 be dd 23 af 3d 79 c7 0a 3e
       0.06812742 -0.13181427 0.08551762 0.13552655
0000b0 29 0b 14 bc a2 8b 28 bd 78 f0 e2 bd 62 96 d3 3d
       -0.009035864 -0.04114879 -0.11081022 0.103314176
0000c0 3c cd d5 3d a1 4c c2 3d 50 1e b4 3d 46 00 34 bb
       0.10439536 0.09487272 0.08794844 -0.0027465983
0000d0 0d 4f 62 bd 99 29 02 be 48 e1 4c 3d 48 8e f0 3d
       -0.05525117 -0.12711181 0.050019532 0.11745888
0000e0 e7 4b 8a 3b d1 7f 84 bd f9 75 ad 3d e8 ac af 3d
       0.004220474 -0.064696915 0.08469767 0.08577901
0000f0 c1 42 e1 3d 37 8f b1 bc ec 5a 17 3d 63 72 71 bc
       0.109990604 -0.021674735 0.036951944 -0.014736745

4.weight f4 [4, 64]
000000 81 16 99 bd 97 4e db bc 78 c0 3b 3e a8 e6 1e bd
       -0.074749954 -0.026770873 0.1833514 -0.03879419
000010 8d 14 0a be 71 0b db 3d 31 8c 2f 3d 6f b3 70 3d
       -0.13484402 0.10695542 0.042858306 0.05876487
000020 d1 d4 e1 3d 39 dc f3 3c 08 10 03 3d bf 95 da 3d
       0.1102692 0.029768096 0.03199771 0.10673093
000030 69 69 6d 3d 76 7f 55 bd 00 a4 3a 3e a6 31 d6 bc
       0.057961855 -0.05212351 0.18226624 -0.026146721
000040 a5 77 22 3e f5 89 0d bd 89 2c 4e 3d bb d9 cd 3d
       0.15865953 -0.034555394 0.05033544 0.100512944
000050 42 75 04 be d0 c9 1b 3e 85 94 8a bd 7d e6 5e 3c
       -0.12935355 0.15213704 -0.06766609 0.013604757
000060 7c fe 29 be 5f 50 2a be 84 0d 56 3d 98 74 a4 3c
       -0.16600984 -0.16632222 0.052258983 0.020075127
000070 60 26 09 3e 83 5a 17 3e 13 dd da bd bd c6 32 3e
       0.13393545 0.14780621 -0.10686698 0.17458625
000080 ac f3 4b 3e 5a f0 be 3d fa 63 a9 3b df 6c 87 bc
       0.19917172 0.09323187 0.005169389 -0.016531406
000090 1c 2d 9d 3d d1 8a 26 be 64 e7 7d bd f6 a8 45 3d
       0.076746196 -0.16263892 -0.06198825 0.048256837
0000a0 73 14 48 3e 56 1d 9f bd 51 6b 66 bd 2c 7f 55 3d
       0.19539051 -0.07769267 -0.05625469 0.052123234
0000b0 ba e6 4c 3e 29 11 18 3e 7b 62 e5 bd 8d ad 60 3d
       0.2000989 0.14850296 -0.11200424 0.05485301
0000c0 a1 c5 17 3e 35 95 3d 3d 57 27 21 bd 73 22 1c 3e
       0.14821483 0.046284873 -0.039344158 0.15247516
0000d0 39 d0 cd bc 6f b7 3a 3e 44 bc 39 be 62 e5 be 3d
       -0.025123702 0.18234037 -0.18138224 0.09321095
0000e0 6f 47 1e 3e ad 6a 92 bc 63 d1 d7 3d 7c c3 38 3e
       0.15456937 -0.017873133 0.10537984 0.18043321
0000f0 90 3f 10 be 27 77 01 3d 18 3b aa bd 37 e6 07 bd
       -0.14086747 0.031607773 -0.083120525 -0.033178534
000100 1e c4 15 be 12 e5 01 be a3 88 17 be 61 d3 17 3e
       -0.14625594 -0.1268504 -0.14798217 0.14826728
000110 d5 73 21 3e 6e 55 21 be 54 09 44 be ca d9 05 3e
       0.15766843 -0.15755245 -0.19144183 0.13071361
000120 c2 cb bf 3c f8 95 cc 3c 5d 7c 9a 3d eb 43 8c 3d
       0.023412589 0.024973854 0.07543252 0.06848892
000130 5a 50 00 3d 0a cf d4 3d e0 95 8e bc 01 0f c6 3d
       0.03132663 0.10391052 -0.01740545 0.096708305
000140 02 9c 18 be da 1a 56 be 74 af 15 bc 8e be 73 3d
       -0.14903262 -0.2090868 -0.00913607 0.0595079
000150 c4 c9 15 be 91 ca b4 3d 48 94 f2 3d be de 28 bd
       -0.14627749 0.08827699 0.11844689 -0.04122805
000160 96 5b 90 bd 66 1b 48 bd e8 3d 82 bd 3f e0 51 3d
       -0.07048719 -0.048854254 -0.06359464 0.05123925
000170 ec 55 17 be 2e 71 6d 3d ae 9a be bc d7 d9 26 be
       -0.1477887 0.057969265 -0.023267116 -0.16294037
000180 f1 34 2b 3d 2d ec 86 3d ca fc 08 3e c3 72 ae 3d
       0.041798536 0.06588016 0.13377681 0.08517983
000190 aa 64 19 be 62 c1 c4 bb 2d 6b 23 be 52 f8 ee bc
       -0.14979807 -0.0060044983 -0.15958853 -0.029171143
0001a0 1b e2 20 bd 2c 1c a1 bd b1 ec a5 3d 2d ef 4f bd
       -0.03927813 -0.078667015 0.08101786 -0.050765205
0001b0 c1 db 09 3e 28 74 83 bc b5 72 8c 3d c4 51 bc bd
       0.13462736 -0.016046599 0.06857816 -0.09195283
0001c0 40 9d ce 3d d0 08 6c b8 23 20 26 3e 4f 76 1a be
       0.10088587 -5.6274992e-05 0.16223197 -0.15084194
0001d0 ef 55 ce bd 51 79 fc bd c4 bc 40 bc fc eb 56 3c
       -0.10074984 -0.12327827 -0.011763755 0.0131177865
0001e0 63 87 eb bc ee c5 d4 bd 58 7e 1a bd a4 dc 2b be
       -0.02875108 -0.103893146 -0.037718147 -0.16783386
0001f0 72 4e be 3c 46 f1 d9 3d 6a 11 e3 bd bc 93 24 be
       0.023230765 0.106417224 -0.11087306 -0.16071981
000200 11 e9 04 3e eb c0 c5 3d 1b f4 94 bd 41 45 31 be
       0.12979533 0.09655937 -0.07273122 -0.17311575
000210 72 a8 87 3b 5f 70 50 3d f2 b4 93 3d e4 01 d0 bd
       0.0041399533 0.050888415 0.07212247 -0.101566106
000220 b5 e4 25 be a7 11 b3 bd 75 21 97 bd 37 79 04 bd
       -0.16200526 -0.08743601 -0.07379428 -0.032342162
000230 11 c1 ef bc f1 8e 4c 3e 00 f3 45 3a 73 5d 33 be
       -0.029266866 0.19976403 0.00075511634 -0.17516117
000240 c1 2d 6c 3c 88 f8 0b 3e 7d 51 45 bc 2c ae 9b 3d
       0.014415205 0.13669026 -0.012043354 0.0760158
000250 bf b1 d3 3c 57 bf e6 bb fd 66 aa bc 19 b2 26 be
       0.025841592 -0.0070418525 -0.020801062 -0.16278876
000260 26 49 26 3e a6 0f 9b bc 50 43 be bd ed 74 84 bd
       0.16238841 -0.01892836 -0.092901826 -0.06467614
000270 fa ab b6 bd c7 cc ca bc db 48 46 3e 76 ba 41 bd
       -0.08919521 -0.024755849 0.1936373 -0.047296964
000280 9a 76 59 be 44 b3 62 bd 77 1a 2c be e8 9b d0 3d
       -0.21236649 -0.055346742 -0.1680697 0.10185987
000290 a7 f0 bf 3d c7 1f 21 3e 36 05 02 3e ec f9 28 be
       0.09372073 0.15734778 0.126973 -0.16501588
0002a0 cc 42 71 3b 30 d9 09 3e 65 49 f6 3d fe d7 0e 3d
       0.0036813496 0.13461757 0.12025718 0.034873955
0002b0 4e ee 0e bd 9f 40 3e 3d ca 91 84 bc 7d 95 b3 bc
       -0.034895234 0.046448346 -0.016182799 -0.021921868
0002c0 cd dd 5b be 57 60 f1 3d 52 f8 96 bd 5a a2 3d be
       -0.21471329 0.117859535 -0.07371582 -0.18518963
0002d0 36 9f 50 3b 9f 8e cf 3d 3e de 37 bc 73 1f ef bd
       0.0031833178 0.10134625 -0.01122242 -0.1167592
0002e0 11 97 3e be 97 19 90 3d 9e 62 24 3e c5 93 8d 3c
       -0.18612315 0.07036131 0.16053244 0.017282376
0002f0 6e 66 04 be 97 62 03 be c8 1f 49 3e a1 cf cf 3d
       -0.12929699 -0.12830578 0.1964103 0.10147024
000300 14 93 c5 3d f0 55 0a 3e d7 47 2b be da a9 5f bd
       0.096471936 0.13509345 -0.16726623 -0.054605342
000310 fc d9 27 3e 54 04 b8 bb 97 4d ec 3d d0 a9 4a bc
       0.16391748 -0.0056157503 0.115382366 -0.012369588
000320 dd 4d 46 bd 69 f2 0c 3e be 75 94 bd 41 ca 4c be
       -0.0484141 0.13764347 -0.0724902 -0.19999029
000330 c6 d3 1c be 7e f2 4b be 39 9f 79 3d 65 a3 c2 bd
       -0.1531516 -0.19916722 0.060942862 -0.09503821
000340 b5 44 99 3d 8a 8c 02 3e 9c df 35 3e ea 08 2b be
       0.07483808 0.12748924 0.17761081 -0.16702619
000350 d4 aa ad 3d 57 43 06 be 69 43 9b 3d 2c a3 d7 3d
       0.084798485 -0.13111626 0.07581217 0.105291694
000360 32 c5 f1 ba 44 7d 72 3d f4 6e ed 3d 81 27 d9 bb
       -0.001844561 0.059201494 0.11593428 -0.0066270237
000370 4e d3 4c 3e d7 d2 a7 3d 85 0b 14 bd 8f b7 bc bd
       0.20002481 0.081945114 -0.0361438 -0.092146985
000380 0d 91 ce 3c cd c2 d9 bd c5 b3 6e 3c 40 60 27 be
       0.02521565 -0.106328584 0.014569228 -0.1634531
000390 5e 0f 33 3e f4 2c 4b 3d 2b 75 00 be d5 e7 11 3e
       0.17486331 0.049603418 -0.12544696 0.14248593
0003a0 7f cc 35 be b1 ae d8 bd 8b 08 07 bd 05 9a 77 3d
       -0.1775379 -0.10580195 -0.03296713 0.06044962
0003b0 dc 8e e1 bc c8 2e 9f 3c b4 0f 3a be 2b 75 f9 bd
       -0.027533941 0.019431487 -0.18170053 -0.12180551
0003c0 cd ff 25 bc 66 fe 42 3e 96 b6 53 be 1d d0 30 3d
       -0.010131788 0.19042358 -0.2067512 0.043167222
0003d0 9a cd e5 bb 7e 2a a2 bd 2e dc ca 3d 05 e3 ff bb
       -0.007013035 -0.07918261 0.09905277 -0.0078090453
0003e0 b3 4c c4 bd d2 ed e3 bd 41 68 e0 3b d8 4c 1a be
       -0.09584942 -0.11129345 0.0068483655 -0.15068376
0003f0 20 27 cd 3c bd d3 bf 3d 41 28 39 3d 7d 8b 2a bd
       0.02504307 0.09366558 0.045204405 -0.041636933

4.bias f4 [4]
000000 05 be 91 bb e7 60 8b bd 14 bd d1 bd 66 72 a9 bc
       -0.004447701 -0.06805592 -0.10241142 -0.020684432
